cartpole_best_model.pth (torch, 274240 bytes, 6 tensors)

net.0.weight f4 [256, 5]
0	0xbf0135f3	-0.50472945
1	0x3ed157a0	0.40887165
2	0x3f17d160	0.59303856
3	0xbd104c3f	-0.035228964
4	0x3e318c3b	0.1733865
5	0x3ef6bebe	0.481924
6	0x3e7e4eaa	0.24834695
7	0xbed98b57	-0.4248912
8	0x3de4db0f	0.111745946
9	0xbec0c568	-0.3765061
10	0x3e8220b5	0.25415578
11	0xbe83a0a3	-0.25708494
12	0x3c403f6f	0.011733874
13	0x3e50dbf2	0.20396402
14	0x3d74ebde	0.059795253
15	0xbd376c40	-0.04478097
16	0xbf060b13	-0.5236065
17	0xbf9edece	-1.2411745
18	0xbf0a3850	-0.53992176
19	0x3e37ec37	0.17961203
20	0xbf009a32	-0.50235283
21	0x3e134ac2	0.14383987
22	0xbef1709d	-0.4715623
23	0xbe51c09b	-0.2048363
24	0x3ef13155	0.4710795
25	0x3f3e4b07	0.7433323
26	0x3f16aa60	0.5885372
27	0x3e8a6935	0.27033392
28	0xbde2499f	-0.11049198
29	0xbec129c5	-0.3772718
30	0xbe3a6260	-0.1820159
31	0x3e6fa705	0.23403557
32	0x3f2956b1	0.66147906
33	0xbe418011	-0.1889651
34	0xbe8080a0	-0.25098133
35	0x3eb52c20	0.35385227
36	0x3d8a21ed	0.06744752
37	0x3edae9cf	0.42756507
38	0x3ee3f8fd	0.445259
39	0x3e8c85e7	0.2744591
40	0x3f101d8f	0.562951
41	0x3eb004b0	0.34378576
42	0xbebf1124	-0.37317765
43	0xbe24b450	-0.16084409
44	0xbe78c736	-0.24294743
45	0xbf274f7f	-0.65355676
46	0x3de63eca	0.11242445
47	0x3ea8fe98	0.3300674
48	0x3e6b003e	0.22949311
49	0x3ef7c3dd	0.4839162
50	0x3eb20c4b	0.34775004
51	0x3e179f62	0.14806893
52	0xbe2cfb1b	-0.16892664
53	0xbebf3412	-0.37344414
54	0x3ed9f3e8	0.42568898
55	0xbf63cc2c	-0.88983417
56	0x3d0b53c9	0.03401545
57	0x3f8bdd98	1.0927
58	0x3e08395a	0.13303128
59	0x3d449c3a	0.04800055
60	0xbf16804e	-0.5878953
61	0x3ec6a53f	0.38797948
62	0x3e78af96	0.2428573
63	0xbcaf303f	-0.02138531
64	0x3e2fa363	0.17152171
65	0xbf156ce5	-0.58369285
66	0x3e09c478	0.13453853
67	0x3f69cfd8	0.9133277
68	0xbda332c3	-0.079686664
69	0x3e52b7e9	0.20577969
70	0x3efd0c84	0.4942361
71	0x3f257296	0.6462797
72	0xbcd3e1bc	-0.025864474
73	0x3ebc0f88	0.367306
74	0x3e00a5be	0.12563226
75	0xbe04fc25	-0.1298681
76	0x3f2250a8	0.6340432
77	0xbc5ad47c	-0.013356324
78	0x3df68cbe	0.12038563
79	0xbd4b20b1	-0.049591724
80	0x3d255579	0.040364716
81	0xbd083817	-0.033256616
82	0xbe7aa771	-0.24477936
83	0xbc3cf7b4	-0.011533666
84	0xbe125a85	-0.14292343
85	0xbe1cd73d	-0.15316482
86	0x3dd24a35	0.1026806
87	0xbf56e413	-0.83941764
88	0xbef6194e	-0.4806618
89	0xbe0c50eb	-0.13702743
90	0x3f17d237	0.5930514
91	0xbe2636b6	-0.16231808
92	0xbe0fe084	-0.1405049
93	0x3e0bc836	0.13650593
94	0xbe599c96	-0.21251139
95	0xbdbf0000	-0.09326172
96	0xbcf7e927	-0.030262543
97	0x3f68dedc	0.90965056
98	0xbdb1f15d	-0.086886145
99	0xbc49180d	-0.012273801
100	0x3e964dc8	0.29356217
101	0xbea0157d	-0.31266394
102	0x3ee95ea0	0.45580006
103	0x3f02ce04	0.51095605
104	0x3ee3dffe	0.4450683
105	0x3ec317a2	0.38103968
106	0xbc7756f0	-0.015096411
107	0xbf2bacfc	-0.6706083
108	0x3d8fd021	0.07022119
109	0x3ebc1334	0.367334
110	0xbde5ecbd	-0.11226795
111	0x3edb83c3	0.42873964
112	0x3e3320db	0.17493002
113	0x3e587e3c	0.21141905
114	0xbdef3056	-0.11679141
115	0x3e8650e1	0.2623358
116	0x3d9bf5d1	0.07615245
117	0x3efa6c11	0.48910573
118	0xbeb31894	-0.3497969
119	0xbed2d2d3	-0.4117647
120	0xbf908b65	-1.129254
121	0x3f017e44	0.5058329
122	0x3e1c6c75	0.15275748
123	0x3e89a8d9	0.26886633
124	0x3b945107	0.004526261
125	0xbeec9adc	-0.46211898
126	0x3e36a871	0.17837693
127	0xbe5f4b20	-0.21806002
128	0xbe9132e3	-0.28359136
129	0x3e5bf197	0.21478878
130	0xbe838e2b	-0.25694403
131	0x3eeef402	0.46670538
132	0x3cd504f0	0.026003331
133	0xbe338866	-0.175325
134	0x3e2711df	0.16315411
135	0xbd14a3a1	-0.03628886
136	0xbe0f36a7	-0.13985692
137	0x3e38bce9	0.18040814
138	0x3ed7a45c	0.42117584
139	0xbd83eff1	-0.064422496
140	0x3f3e7113	0.7439129
141	0x3eebfc35	0.46090856
142	0x3f0c5b3f	0.5482673
143	0xbcde0f2a	-0.02710684
144	0x3e16b5c0	0.1471777
145	0x3eb0f060	0.34558392
146	0xbe302064	-0.17199856
147	0x3e0857ab	0.13314693
148	0x3e4ede24	0.20201927
149	0xbea7e784	-0.3279382
150	0xbf0225bb	-0.5083882
151	0xbe35db93	-0.17759542
152	0xbf0df28b	-0.55448216
153	0x3d825f00	0.06365776
154	0x3de429c9	0.111407824
155	0xbf3eb174	-0.7448952
156	0xbf2558e5	-0.6458877
157	0xbe1576a9	-0.14596047
158	0xbe08b7dd	-0.13351388
159	0x3e0194d8	0.12654436
160	0x3d417aa8	0.047236115
161	0x3e00d080	0.12579536
162	0xbf33a0c3	-0.7016718
163	0x3e1225f4	0.1427229
164	0x3ec2a7d2	0.38018662
165	0xbc2fa72e	-0.010721011
166	0x3ed5e08a	0.41772872
167	0x3f5ff966	0.87489927
168	0x3d1df98a	0.038568057
169	0xbd9ff833	-0.07811012
170	0xbe830013	-0.25585994
171	0x3e2e0076	0.16992363
172	0xbef50e68	-0.47862554
173	0x3e1212a7	0.14264928
174	0xbea1a6cd	-0.3157257
175	0xbe9c1d8c	-0.30491292
176	0xbea83ae9	-0.32857445
177	0xbf924cd6	-1.1429698
178	0x3e0e8486	0.13917741
179	0xbe1a76d9	-0.150844
180	0x3f066aaf	0.52506536
181	0x3eef2921	0.46711066
182	0x3f2bd0d4	0.6711552
183	0xbe9c321d	-0.30506983
184	0x3e33ed88	0.1757108
185	0x3f3dcb24	0.74138093
186	0x3f3b4c51	0.73163325
187	0x3e2b359c	0.16719669
188	0x3ebef4f4	0.3729626
189	0x3f0aa908	0.5416417
190	0x3edf9d23	0.43674573
191	0xbdfa2085	-0.12213234
192	0xbe9b9fcc	-0.30395353
193	0xbee72b69	-0.45150307
194	0x3edccb16	0.43123692
195	0x3ea5638a	0.32302505
196	0xbe7112b9	-0.23542298
197	0x3f2400e6	0.6406387
198	0x3e8ece8c	0.27891958
199	0x3eba7bd4	0.36422598
200	0x3e76e8a0	0.24112177
201	0xbeceb973	-0.40375862
202	0xbf38ed08	-0.7223668
203	0x3ef2e5be	0.47440904
204	0x3e786dab	0.24260585
205	0xbefc9f1b	-0.49340138
206	0x3ea70e71	0.32628205
207	0x3e795a47	0.24350844
208	0xbdee4ad8	-0.11635369
209	0x3eba25e3	0.3635703
210	0xbf11e2c1	-0.56986624
211	0xbdd33a5b	-0.10313865
212	0x3eaa9fec	0.33325136
213	0xbe838c15	-0.25692812
214	0x3e5e1c29	0.2169043
215	0xbde8a204	-0.11359027
216	0x3f015aa0	0.5052891
217	0x3f49bda2	0.7880498
218	0x3eab7917	0.33490822
219	0xbd1ca524	-0.038243428
220	0xbd2cc0d5	-0.042176086
221	0xbec12d52	-0.3772989
222	0xbf7e0c3e	-0.9923743
223	0xbead02dd	-0.33791247
224	0x3c6c30d7	0.014415941
225	0x3e1a0c8e	0.15043852
226	0xbee69ea6	-0.45042914
227	0xbe60eb43	-0.21964745
228	0xbef1f899	-0.47259977
229	0xbdebac91	-0.11507524
230	0x3e7689d7	0.24076019
231	0xbe5ef531	-0.2177322
232	0xbf22a58b	-0.6353385
233	0x3ec0abbe	0.3763103
234	0xbf25e33e	-0.6479987
235	0x3c629e74	0.0138317235
236	0x3e34aaec	0.17643327
237	0x3ede3c74	0.43405497
238	0xbeba3d56	-0.3637492
239	0xbf0766e5	-0.5289138
240	0xbdf6bef2	-0.12048139
241	0x3e1fb3b7	0.155959
242	0x3f2ab4a5	0.6668189
243	0x3eb2ee86	0.34947604
244	0x3f06857c	0.5254743
245	0x3e8cee40	0.2752552
246	0xbc4ca36b	-0.012490134
247	0xbdbcb820	-0.092148066
248	0x3eaa4152	0.3325296
249	0xbf09207f	-0.5356521
250	0xbd814ee1	-0.06313873
251	0xbe638e7c	-0.22222322
252	0xbd9ef396	-0.07761304
253	0x3e81c4fb	0.25345597
254	0x3dcde75f	0.10053896
255	0x3ed05e49	0.40696934

net.0.bias f4 [256]
0	0x3ee5ce85	0.44884124
1	0x3cb2041c	0.021730475
2	0x3e88b45e	0.2670011
3	0xbe8a0022	-0.26953226
4	0xbe6dee02	-0.23235324
5	0x3e9ef005	0.31042495
6	0xbec9146d	-0.39273396
7	0x3f04c1b6	0.5185808
8	0xbe86f31a	-0.26357347
9	0xbe7c936f	-0.24665616
10	0xbef0cad0	-0.47029734
11	0xbe5effa2	-0.21777204
12	0x3ed789c8	0.42097306
13	0xbe0c25d5	-0.13686307
14	0xbea850bc	-0.32874095
15	0xbbf66c2f	-0.0075202207
16	0x3e075973	0.13217716
17	0x3deff6aa	0.11716969
18	0xbe9ba967	-0.3040268
19	0x3e02e155	0.1278127
20	0xbeacbb76	-0.3373677
21	0x3adac58c	0.0016690954
22	0x3ec2d8ec	0.38056123
23	0x3e8e3d72	0.27781254
24	0xbe32975e	-0.17440554
25	0x3ec33ceb	0.38132414
26	0x3e25c926	0.16190013
27	0xbed71749	-0.42009953
28	0x3cff8c7b	0.031194916
29	0xbdfaa79e	-0.12239002
30	0x3e27157d	0.16316791
31	0x3e812070	0.2522006
32	0x3de384e8	0.11109334
33	0x3b39080b	0.0028233554
34	0x3ecd0be7	0.40048143
35	0x3d95d7b9	0.073165365
36	0x3e61e1eb	0.22058837
37	0xbea18c07	-0.31552145
38	0xbed30791	-0.4121671
39	0xbf18fe91	-0.5976344
40	0x3d0d9cb6	0.03457328
41	0x3e8cb16c	0.27479112
42	0x3e5a4368	0.21314776
43	0x3e131532	0.14363554
44	0xbdf9bcac	-0.121941894
45	0xbe5b1aeb	-0.21396987
46	0xbdc430a2	-0.095795885
47	0x3ea2ff25	0.31835285
48	0xbeba0f6f	-0.363399
49	0x3ed8ab69	0.42318276
50	0xbf03cdec	-0.51486087
51	0xbc52a823	-0.01285747
52	0x3e18962e	0.14901039
53	0xbe3b9da9	-0.18321861
54	0x3e8165c3	0.2527295
55	0x3eb0e084	0.34546292
56	0x3edd2977	0.43195698
57	0xbe60c6e4	-0.21950871
58	0xbe8d003f	-0.2753925
59	0x3e1ebece	0.15502474
60	0x3e88cd88	0.26719308
61	0xbe60a704	-0.21938711
62	0x3e0a20c6	0.13489065
63	0xbe296515	-0.16542466
64	0xbe7c9710	-0.24667001
65	0xbe306b63	-0.17228465
66	0x3e6deaa6	0.23234043
67	0x3ef07367	0.46963045
68	0x3e3c0e91	0.18364932
69	0x3e9971cb	0.2996963
70	0x3ed55446	0.41665858
71	0xbf1f1304	-0.6213839
72	0x3eba7b16	0.36422032
73	0xbebfb05c	-0.3743924
74	0xbee13fc2	-0.43993956
75	0xbec10e4b	-0.37706217
76	0xbe6a2c35	-0.22868426
77	0xbe54f114	-0.20795089
78	0x3e3d63e3	0.18495135
79	0x3df5f925	0.12010411
80	0x3eba06de	0.36333364
81	0xbdb02873	-0.08601465
82	0x3e10b553	0.1413167
83	0xbf26f4f8	-0.6521754
84	0x3e8c4362	0.2739516
85	0x3ed154df	0.40885064
86	0xbdd4bf43	-0.10388043
87	0xbe7dd8a8	-0.24789679
88	0x3e65d832	0.22445753
89	0x3ecd3628	0.4008038
90	0xbe13e4de	-0.14442775
91	0xbd03d5da	-0.032186367
92	0xbe8f4817	-0.27984688
93	0xbf0a71c5	-0.5407985
94	0xbed76415	-0.42068544
95	0x3edc14e4	0.42984688
96	0x3dd6340e	0.104591474
97	0xbe440bdb	-0.19145148
98	0x3ec15c12	0.37765557
99	0x3e172597	0.14760433
100	0xbef0eec4	-0.47057164
101	0xbe1a799c	-0.15085453
102	0x3e980034	0.29687655
103	0xbe9c04d0	-0.30472422
104	0x3e76eed8	0.24114549
105	0x3eb3ff22	0.35155588
106	0xbf374bf7	-0.7160029
107	0xbe2f5d84	-0.17125517
108	0x3e4ad715	0.1980861
109	0x3e2a539a	0.16633454
110	0x3e94802f	0.29004046
111	0xbedc9671	-0.43083528
112	0x3e8c271f	0.27373597
113	0xbeaf2730	-0.34209585
114	0x3e2479e9	0.1606213
115	0x3e8538af	0.2601981
116	0xbe1bde86	-0.15221605
117	0xbeded67d	-0.43523017
118	0xbd270d02	-0.04078389
119	0x3d80d46e	0.06290518
120	0x3eab223a	0.3342455
121	0xbdf3115c	-0.118685454
122	0x3e8fba14	0.28071654
123	0x3e85ff4e	0.26171345
124	0xbe51d4fe	-0.20491406
125	0xbb8ee712	-0.004361042
126	0xbea360a5	-0.3190967
127	0xbe83ede8	-0.25767446
128	0xbe79e49e	-0.24403617
129	0xbd467c97	-0.048458662
130	0x3c8d6574	0.01726029
131	0xbeecfe9f	-0.4628801
132	0x3e4044c8	0.18776238
133	0xbd92305f	-0.07138132
134	0xbe0e960b	-0.13924424
135	0x3ed09175	0.40735975
136	0xbe5ee588	-0.21767247
137	0xbe6dcf81	-0.23223688
138	0x3e8268c8	0.25470567
139	0xbe62befc	-0.22143167
140	0xbe89b6bb	-0.26897225
141	0x3eda358d	0.4261898
142	0x3ecac2cd	0.39601746
143	0xbe3b6440	-0.18299961
144	0x3d9def45	0.07711653
145	0xbe4f97a5	-0.20272692
146	0xbef8f5f7	-0.48625156
147	0xbeb76e60	-0.35826397
148	0x3ea5b88f	0.3236737
149	0x3d38e3e4	0.04513921
150	0xbf062777	-0.5240397
151	0xbeab2a5d	-0.33430758
152	0x3ead0a28	0.3379681
153	0x3e7a8674	0.24465352
154	0xbd276793	-0.04087026
155	0xbdedc682	-0.11610128
156	0xbe68189e	-0.2266564
157	0x3e50d58b	0.2039396
158	0x3e57dae0	0.21079588
159	0x3d4a39c3	0.049371492
160	0x3e7047ab	0.23464839
161	0xbede0f39	-0.4337099
162	0x3e1559ce	0.14585039
163	0x3e356fb9	0.177184
164	0xbe9cfafe	-0.30660242
165	0x3ee5d388	0.44887948
166	0xbe0b2e2b	-0.1359183
167	0x3d75d777	0.060019936
168	0xbe620124	-0.22070748
169	0x3ec8baae	0.39204925
170	0x3e6c0406	0.2304841
171	0xbee21565	-0.44156948
172	0xbedda52e	-0.43290085
173	0x3e7f556c	0.2493493
174	0xbe8d2a71	-0.27571443
175	0xbe83e9cf	-0.2576432
176	0x3e6e7981	0.23288538
177	0x3e677799	0.22604217
178	0x3e74bbb8	0.23899734
179	0x3e79e24f	0.24402736
180	0x3e8f38eb	0.27973112
181	0x3ed650db	0.41858563
182	0xbef1f880	-0.47259903
183	0xbe86f604	-0.2635957
184	0xbdc2121b	-0.094761096
185	0x3efbfeec	0.49217927
186	0x3c90718e	0.017632272
187	0xbde7b085	-0.11312965
188	0xbf097c46	-0.5370525
189	0x3df28fd2	0.11843838
190	0xbee90935	-0.45514837
191	0x3e6c5767	0.23080216
192	0xbefef156	-0.497935
193	0xbec0afd3	-0.37634143
194	0xbe6d61a7	-0.23181783
195	0xbe152b85	-0.14567383
196	0xbeb79ae9	-0.35860375
197	0x3e6f83b5	0.23390086
198	0x3e9d73fc	0.30752552
199	0xbe8b3515	-0.27188936
200	0x3e4b18a5	0.1983362
201	0x3ec37d5f	0.38181588
202	0x3e109a9d	0.1412148
203	0x3eb69855	0.35663095
204	0xbdc7738b	-0.09738835
205	0x3eb62615	0.3557593
206	0xbeb2b136	-0.34900826
207	0x3ef89c86	0.48556918
208	0x3eeafec8	0.45897508
209	0xbe8f8a5b	-0.28035244
210	0x3c962669	0.018328862
211	0x3e771429	0.24128784
212	0x3e736c6d	0.2377183
213	0x3ee348f0	0.44391584
214	0x3eb81330	0.3595214
215	0xbd911d28	-0.07085639
216	0x3e9eca14	0.31013548
217	0xbe1a8084	-0.15088087
218	0xbedae43d	-0.42752257
219	0x3dcc56e9	0.09977514
220	0x3e792037	0.24328695
221	0x3e987b48	0.29781556
222	0xbe6e0ea2	-0.2324777
223	0x3e793c8d	0.24339505
224	0xbeb8a1a0	-0.3606081
225	0xbe8bfe52	-0.27342469
226	0xbf0bf012	-0.54663193
227	0x3ee5c131	0.44873956
228	0xbe5fe68a	-0.21865287
229	0x3e9a194a	0.3009742
230	0x3eac5469	0.3365815
231	0xbd49cbd1	-0.04926664
232	0xbe183f5c	-0.1486792
233	0x3e8db6a8	0.27678418
234	0xbe6098e3	-0.21933322
235	0x3e5b40d5	0.2141145
236	0x3eb92db5	0.36167684
237	0xbe97cb16	-0.2964713
238	0xbe884be2	-0.26620394
239	0x3ee49883	0.44647607
240	0xbe8ea433	-0.2785965
241	0xbebe451c	-0.371621
242	0x3ec65e0a	0.3874362
243	0xbe850e8f	-0.2598767
244	0x3ed24972	0.4107166
245	0xbe4eadb6	-0.20183453
246	0x3ed80cd5	0.4219729
247	0xbeeb929d	-0.46010295
248	0x3ef820d6	0.48462552
249	0x3ef71495	0.4825789
250	0x3da8d3c2	0.082435146
251	0x3ebd0acd	0.36922303
252	0x3e955a38	0.29170394
253	0xbed9dad7	-0.42549774
254	0xbe861421	-0.26187232
255	0x3ea52ee0	0.32262325

net.2.weight f4 [256, 256]
0	0x3cedada1	0.029013457
1	0xbd2d1447	-0.042255666
2	0x3cd21050	0.025642544
3	0xbf587693	-0.8455593
4	0x3dd0e69e	0.10200237
5	0x3d152794	0.036414698
6	0x3dd18bf5	0.10231773
7	0x3daecdc9	0.08535344
8	0xbe67e42a	-0.22645631
9	0xbd29b758	-0.041434616
10	0xbe02d89a	-0.1277794
11	0xbebfb88f	-0.37445495
12	0x3dc3b30f	0.09555637
13	0xbe8ba4b5	-0.272741
14	0x3f184023	0.59472865
15	0x3e86b3aa	0.26308948
16	0x3d4184b8	0.04724571
17	0xbe523eff	-0.20531844
18	0x3e8081c8	0.25099015
19	0x3d003fad	0.031310726
20	0x3b80b433	0.0039277314
21	0x3e152141	0.14563467
22	0x3dd4af9c	0.10385057
23	0x3dfb2493	0.12262835
24	0xbef4d78a	-0.47820693
25	0x3d856d72	0.06515016
26	0xbae7da87	-0.0017689028
27	0xbe1ad939	-0.15121926
28	0xbcba2f17	-0.022727532
29	0xbd59a946	-0.053139947
30	0xbd0d822b	-0.034547966
31	0x3a6167fd	0.00085985643
32	0xb6026186	-1.9428276e-06
33	0xbe791d88	-0.24327672
34	0x3dcaa31e	0.098943934
35	0xbe7c3dac	-0.24632901
36	0x3d305b57	0.04305586
37	0x3e2435e6	0.16036186
38	0xbe56a843	-0.20962624
39	0xbe11e79d	-0.1424851
40	0x3ca20da9	0.019781904
41	0x3d907fb0	0.070556045
42	0x3d1b86e0	0.037970424
43	0x3d8e0e22	0.06936289
44	0xbf3e0492	-0.74225724
45	0xbec95ced	-0.3932871
46	0xbe011977	-0.1260737
47	0x3e0457ea	0.12924162
48	0xbdfd893f	-0.12379693
49	0x3da91afa	0.082570985
50	0xbf30020a	-0.6875311
51	0xbc39d3df	-0.011342018
52	0xbc567ccd	-0.013091278
53	0xbe1d8836	-0.15383992
54	0x3d8ab9a0	0.067736864
55	0x3d5a2349	0.053256307
56	0x3df6969f	0.120404474
57	0xbe108e0b	-0.14116685
58	0x3ec238c8	0.37933946
59	0x3dacc22b	0.08435472
60	0x3de2595b	0.110521995
61	0xbdec99ac	-0.11552748
62	0x3db7cf84	0.08975127
63	0xbea79b09	-0.3273547
64	0x3d8969b5	0.06709615
65	0xbe045fe3	-0.12927203
66	0x3c3ed2e7	0.011646963
67	0x3c24ae93	0.010051387
68	0x3cb8f05d	0.022575552
69	0x3de2fd14	0.11083427
70	0x3d21bd6e	0.039487295
71	0xbdf99eb3	-0.121884726
72	0xbb27b08e	-0.0025587413
73	0xbd430043	-0.04760767
74	0xbeca91ce	-0.39564365
75	0x3de8396f	0.113390796
76	0xbf2c9ed0	-0.6742983
77	0xbdfd002f	-0.12353551
78	0x3e1b47e0	0.15164137
79	0x3d1d7353	0.03844006
80	0x3d8695ac	0.065715164
81	0xbdb055e7	-0.086101346
82	0x3e4bd721	0.19906284
83	0xbe6d9f54	-0.2320531
84	0x3d8906a2	0.06690718
85	0x3d982db7	0.074305944
86	0xbd6117a3	-0.054954182
87	0xbe5b57c4	-0.21420199
88	0x3d0cc219	0.034364793
89	0x3deddc7a	0.11614318
90	0xbe464eb0	-0.19365954
91	0x3cd25315	0.025674382
92	0xbf26d67c	-0.6517103
93	0xbeba3cf6	-0.36374635
94	0x3e2e54bf	0.17024516
95	0x3e078050	0.13232541
96	0x3e1820d2	0.1485627
97	0x3e876abd	0.26448622
98	0x3d2b9119	0.041886423
99	0xbcc16366	-0.023606967
100	0xbe572b08	-0.21012509
101	0xbf5b9878	-0.85779524
102	0x3e181eb6	0.14855465
103	0xbd2e90f8	-0.04261872
104	0x3cfa3e04	0.03054715
105	0x3e1ac21e	0.15113112
106	0xbec4a4d3	-0.38407
107	0xbe6d2713	-0.23159437
108	0x3db80a90	0.0898639
109	0x3c9a87ed	0.018863643
110	0x3e17a878	0.1481036
111	0x3bbc2610	0.005741842
112	0x3d8f7fd2	0.07006802
113	0xbe7c8cfb	-0.24663155
114	0xbc808f00	-0.015693188
115	0x3dc14df2	0.09438695
116	0x3cef3d48	0.029204026
117	0xbe6acf39	-0.22930612
118	0xbce0d66d	-0.027445996
119	0xbd1e07cc	-0.038581654
120	0xbe7f659e	-0.24941108
121	0xbdf11ffc	-0.11773679
122	0x3d8892a3	0.06668594
123	0x3dee3bf0	0.11632526
124	0x3cfce754	0.030872025
125	0x3d385ec8	0.045012265
126	0xbe93c4ff	-0.28861234
127	0xbe692856	-0.22769293
128	0xbec99930	-0.39374685
129	0x3e0f2b55	0.13981374
130	0x3c1c1c62	0.009528251
131	0xbc5db785	-0.013532524
132	0x3d8ab665	0.0677307
133	0x3c0f1b69	0.008734562
134	0xbe9e7d11	-0.30954793
135	0x3dcaf0ea	0.09909232
136	0x3cbe1109	0.023201482
137	0x3d95732b	0.07297357
138	0x3bc76c6c	0.006085923
139	0xbee4f947	-0.44721434
140	0xbf1ed36c	-0.62041354
141	0x3e1244c6	0.14284047
142	0x3d54bb09	0.051936183
143	0xbe8bc010	-0.2729497
144	0x3dfcc1c1	0.12341643
145	0xbe8108e0	-0.25202084
146	0xbe98677f	-0.2976646
147	0xbf14c0d5	-0.5810674
148	0x3db71429	0.08939392
149	0xbe096e32	-0.13420942
150	0x3d40f9f9	0.047113393
151	0xbe14203f	-0.14465426
152	0x3dd731e3	0.10507562
153	0x3e353bcd	0.17698593
154	0xbd06363c	-0.032766566
155	0x3e060833	0.13089065
156	0xbda13e9c	-0.0787327
157	0x3dc8efc2	0.09811355
158	0x3d9dc224	0.07703045
159	0x3e3da71d	0.1852078
160	0x3e000bba	0.12504473
161	0xbe835af1	-0.2565532
162	0xbdbc281d	-0.091873385
163	0x3da4dee5	0.08050326
164	0xbe290641	-0.16506292
165	0x3d3aad3d	0.04557537
166	0xbe25bcbb	-0.16185276
167	0x3e30fe61	0.17284538
168	0xbdb6dbfa	-0.08928676
169	0x3ceab567	0.028650953
170	0x3d462561	0.04837549
171	0xbe0bc83f	-0.13650607
172	0xbde0318a	-0.10946949
173	0x3dffb7d9	0.12486238
174	0x3d624c35	0.055248458
175	0xbe539a77	-0.20664392
176	0x3d746901	0.059670452
177	0x3ddbadd8	0.107265174
178	0x3e0b95c1	0.13631345
179	0x3d672a3b	0.05643676
180	0x3e2f0e1a	0.17095223
181	0x3de14a03	0.11000445
182	0xbe9692e8	-0.29408956
183	0xbe157c0e	-0.14598104
184	0x3ba75199	0.0051061627
185	0x3e0ad02d	0.13555975
186	0xbc5e5500	-0.01357007
187	0xbd855927	-0.06511145
188	0xbe6facbc	-0.23405737
189	0xbd653601	-0.055959705
190	0x3d2fc179	0.04290912
191	0x3d2e6ac2	0.04258228
192	0xbd8f2d25	-0.069910325
193	0xbe275114	-0.16339523
194	0xbe244652	-0.1604245
195	0xbe59d05b	-0.21270888
196	0xbefce78c	-0.49395406
197	0xbbdd4b89	-0.0067533893
198	0x3dc1072e	0.094251975
199	0x3f017208	0.5056462
200	0x3e19fa39	0.15036859
201	0x3d7f830a	0.062380828
202	0x3d1cce96	0.038282953
203	0x3d1c18dc	0.038109645
204	0xbdcbd134	-0.09952012
205	0xb7c2986f	-2.3197585e-05
206	0xbc618b97	-0.013766191
207	0x3d7c4518	0.06158933
208	0x3c8aa24e	0.016923096
209	0xbf17d86a	-0.59314597
210	0xbe11b277	-0.14228235
211	0x3c23d2a4	0.009998951
212	0xbd82f298	-0.06393927
213	0x3df82eec	0.12118325
214	0x3d9081fb	0.07056042
215	0x3e378cd5	0.17924817
216	0x3d1aba3d	0.037775267
217	0x3e076fbb	0.13226216
218	0xbe3bd048	-0.18341172
219	0xbdc5ab20	-0.0965178
220	0x3e0cb3af	0.13740419
221	0x3d990e59	0.0747344
222	0xbe838e2c	-0.25694406
223	0x3cb88999	0.02252655
224	0xbe3be452	-0.18348816
225	0xbe53d08f	-0.20685028
226	0xbe1472bc	-0.14496893
227	0x3d22647f	0.03964662
228	0xbe787012	-0.24261501
229	0x3e29625e	0.1654143
230	0x3e28f406	0.16499338
231	0xbe03eced	-0.12883349
232	0x3c580737	0.013185314
233	0x3db5b320	0.08872056
234	0xbe9efc9c	-0.310521
235	0x3e0e40a4	0.13891846
236	0xbc6410df	-0.013920038
237	0x3e6343e7	0.22193871
238	0xbf0cdcca	-0.550244
239	0x3d97ee96	0.074185535
240	0xbd7bf419	-0.061512087
241	0xbebe0104	-0.3711015
242	0x3e0304f1	0.12794854
243	0xbec8be13	-0.39207515
244	0x3dc69be1	0.096977
245	0xbf1b2909	-0.6060949
246	0x3d1dccd0	0.038525403
247	0xbdb4a180	-0.08819866
248	0x3d9ed5a3	0.07755592
249	0x3dd92acf	0.10603868
250	0x3e026468	0.12733614
251	0x3c16ef3d	0.009212312
252	0x3dea665f	0.11445307
253	0x3e0b22ef	0.13587545
254	0xbeb2bb6f	-0.34908625
255	0xbd013fef	-0.031555112

net.2.bias f4 [256]
0	0x3d58d17f	0.052934166
1	0x3d9720f3	0.073793314
2	0x3d46a91a	0.04850111
3	0x3df83125	0.121187486
4	0x3dc41478	0.095742166
5	0x3ccadffa	0.024765003
6	0xbd1a822c	-0.037721798
7	0x3c83f1a1	0.016106429
8	0xbd62ba31	-0.055353347
9	0x3c6895d7	0.014195881
10	0x3d808848	0.062759936
11	0x3da61798	0.08109969
12	0xbd86fbb2	-0.06590976
13	0x3d213f95	0.039367277
14	0xbd3ae4d5	-0.045628387
15	0xbd8254fd	-0.063638665
16	0x3dea2b90	0.1143409
17	0xbd87abc4	-0.066245586
18	0xbd41069c	-0.047125444
19	0x3e08d5fc	0.13362879
20	0xbc524536	-0.012833884
21	0x3d34af11	0.04411227
22	0xbc2cc877	-0.010545841
23	0x3c9addfa	0.018904675
24	0xbc148cb6	-0.009066751
25	0x3ce2980e	0.027660396
26	0x3d84978e	0.06474219
27	0x3df0c2ce	0.11755906
28	0xbd866db2	-0.065638915
29	0x3c81b7a8	0.015834644
30	0xbcdf55c1	-0.02726257
31	0xbd8af5c7	-0.067851596
32	0xbc584af6	-0.013201466
33	0xbd935148	-0.071932375
34	0x3c6402fc	0.013916727
35	0x3cbf0463	0.023317521
36	0x3bf73fd8	0.0075454526
37	0xbc9ba62b	-0.019000133
38	0x3d1d642a	0.038425602
39	0xbda6225a	-0.08112021
40	0x3cfe19a0	0.031018078
41	0x3d8f85e4	0.070079595
42	0xbdb3deed	-0.08782754
43	0x3d7fff4a	0.062499322
44	0x3d3ea99a	0.046548463
45	0xbd819fee	-0.06329332
46	0xbc34924b	-0.011021207
47	0x3dd3b97f	0.10338115
48	0xbdc3424e	-0.09534131
49	0x3d13b19d	0.036058057
50	0xbd1ac129	-0.037781868
51	0xbd58bf7d	-0.052916992
52	0x3c93a93e	0.018025037
53	0x3d4ca681	0.049963478
54	0x3de3e2e0	0.11127257
55	0x3d0a16b5	0.03371306
56	0xbd222b66	-0.03959217
57	0xbca7ae63	-0.020468896
58	0xbd34d1e8	-0.044145495
59	0x3ce38bd4	0.027776636
60	0x3db9302e	0.09042393
61	0xbc09eb6f	-0.008417948
62	0xb9c9c618	-0.000384853
63	0x3dfc8557	0.1233012
64	0x3d32913e	0.043595545
65	0xbcede75b	-0.029040983
66	0xbd3b2e25	-0.045698304
67	0xbd317982	-0.04332877
68	0xbd2b0f3a	-0.041762568
69	0x3d137be5	0.036006827
70	0xbd970e66	-0.07375793
71	0xbd10f5d4	-0.03539069
72	0xbcc8c4ef	-0.024507968
73	0x3d52b7c3	0.05144478
74	0x3c408c4b	0.011752198
75	0x3d451763	0.048118006
76	0xbd72c3d0	-0.059268773
77	0x3df7e35f	0.121039145
78	0x3d1e26e6	0.038611315
79	0x3c45cee6	0.012073254
80	0x3c8afefb	0.016967287
81	0x3c94cd3f	0.018164275
82	0xbd29f936	-0.04149743
83	0x3dc3dfb3	0.095641516
84	0x3dbc82ee	0.0920466
85	0xbdbd2824	-0.09236172
86	0x3dcbf663	0.09959104
87	0x3c6975e5	0.0142493
88	0x3d33ab03	0.04386426
89	0xbbe1e44b	-0.0068936697
90	0x3d15608b	0.036469024
91	0xbc4434ab	-0.011975448
92	0xbc28106c	-0.0102578215
93	0x3dfb94d5	0.12284247
94	0x3d2cf39a	0.042224504
95	0x3d46a785	0.048499603
96	0x3d48b4a6	0.049000405
97	0x3dfea504	0.12433818
98	0xbce8e9ba	-0.028431762
99	0xbcec376d	-0.028835023
100	0x3dc273b7	0.09494727
101	0xbd41bf30	-0.04730147
102	0x3d6001bc	0.054689154
103	0x3d04d44c	0.032429025
104	0x3dde10bf	0.10843038
105	0xbd1ea790	-0.03873402
106	0xbc131475	-0.008977045
107	0xbcea6b03	-0.02861548
108	0x3d05bd88	0.032651454
109	0xbc880d38	-0.016607866
110	0x3d031eeb	0.032011908
111	0x3deb1630	0.11478841
112	0x3bb3caa1	0.0054868017
113	0x3be83072	0.0070858533
114	0x3d4294cf	0.047505196
115	0xbb871b06	-0.0041230945
116	0x3d542cec	0.051800653
117	0x3db15e2b	0.08660539
118	0xbd4c36f8	-0.04985711
119	0x3dd95be0	0.10613227
120	0x3d4a33e9	0.04936591
121	0xbd4a0753	-0.04932339
122	0x3d9a0e70	0.07522285
123	0x3dd5d85b	0.10441657
124	0xbd148fbd	-0.036269892
125	0xbd7ce7a5	-0.06174435
126	0x3b3a618f	0.0028439497
127	0xbde02c7b	-0.10945984
128	0xbcccecad	-0.0250152
129	0xbcaf79b5	-0.02142034
130	0x3d7c98b6	0.061669074
131	0xbb41e79f	-0.002958752
132	0x3cf0e07d	0.02940392
133	0xbc94d72c	-0.018169008
134	0x3cc5f811	0.024166139
135	0xbd58f950	-0.052972138
136	0xbd6a4ee6	-0.05720415
137	0x3dde5145	0.10855345
138	0x3d560020	0.052246213
139	0x3cbbe140	0.022934556
140	0x3e06a299	0.13147964
141	0xbd0ce2d2	-0.034396
142	0x3de6fbbc	0.11278483
143	0xbbecb25b	-0.00722341
144	0xbd3d4010	-0.046203673
145	0x3dcd6c1c	0.10030386
146	0x3ddca86e	0.10774313
147	0x3dbbc40e	0.09168254
148	0x3df49273	0.119419955
149	0xbb3a9d94	-0.0028475272
150	0xbd092cf4	-0.033490136
151	0x3d512537	0.05106088
152	0xbd15410a	-0.03643898
153	0x3e023e85	0.12719162
154	0x3d885d95	0.06658474
155	0x3defbcff	0.1170597
156	0x3d82af9a	0.063811496
157	0xbd786e60	-0.060652137
158	0x3d1c7e69	0.03820649
159	0x3daeacf3	0.08529081
160	0x3d0fa800	0.035072327
161	0xbc6bb938	-0.014387421
162	0xbd3fabfe	-0.046794884
163	0x3b19e6a1	0.0023483413
164	0x3d1bc42a	0.038028874
165	0x3cec1b3d	0.028821582
166	0x3e05a3fd	0.13050838
167	0x3dc9398d	0.0982543
168	0x3b148d35	0.0022667174
169	0x3d6d057e	0.057866566
170	0xbd244372	-0.040103383
171	0xbd818c29	-0.063255616
172	0xbd2d18fb	-0.04226015
173	0x3d06695e	0.03281533
174	0x3dd2c411	0.10291303
175	0x3d0715a5	0.032979626
176	0x3d619b65	0.055079836
177	0xbd7933a3	-0.06084026
178	0x3dba6277	0.09100812
179	0x3c2d3f31	0.010574148
180	0xbd4d834f	-0.050174054
181	0x3d1f10a3	0.038834225
182	0xbd72422a	-0.05914513
183	0xbd2ece44	-0.04267718
184	0xbd20ecf8	-0.03928849
185	0x3c364720	0.011125356
186	0x3d8e2353	0.06940331
187	0xbdbaf4cb	-0.09128722
188	0x3d921868	0.071335614
189	0x3d0d41c7	0.03448656
190	0xb94873ad	-0.00019116579
191	0x3c96b1ef	0.018395392
192	0xbca054a4	-0.01957161
193	0x3cb71502	0.022348884
194	0xbc1424bf	-0.009041964
195	0x3deddc50	0.11614287
196	0xbd2d52d6	-0.042315327
197	0x3d6735d8	0.056447834
198	0xbd9984c3	-0.074960254
199	0xbd473c04	-0.04864122
200	0x3c893829	0.016750412
201	0x3d5e3d1d	0.0542575
202	0xbd39b95f	-0.0453428
203	0xbd73bec1	-0.05950809
204	0x3e2095aa	0.15682092
205	0x3d9834b4	0.07431927
206	0xbbd6545e	-0.006540819
207	0x3d5969b3	0.05307932
208	0x3da792ab	0.081822716
209	0x3da1826e	0.078862056
210	0x3d8a9d26	0.06768255
211	0x3da13d52	0.07873024
212	0xbcf0f963	-0.029415792
213	0x3de10751	0.109877236
214	0x3d2429dd	0.040078986
215	0xbcda599f	-0.026654063
216	0xbcbee74a	-0.023303647
217	0x3c32a128	0.01090268
218	0x3dfd1d3a	0.1235909
219	0xbcac802a	-0.021057207
220	0x3c304882	0.010759475
221	0x3ca6ad9e	0.020346459
222	0xbcf27756	-0.02959792
223	0x3d843c88	0.06456858
224	0xbd22105e	-0.03956639
225	0x3e29ada4	0.16570145
226	0x3cbbea10	0.022938758
227	0x3de22f00	0.11044121
228	0xbbf09612	-0.0073421085
229	0xbdc0ff4e	-0.094236955
230	0x3d4daeca	0.05021552
231	0xbd4e81d7	-0.050416794
232	0xbcd96a87	-0.026540054
233	0x3de29748	0.11064011
234	0x3d35dc4b	0.04439954
235	0x3d40eac7	0.0470989
236	0xbbeb7204	-0.0071852226
237	0x3d93867e	0.07203387
238	0x3d8ec58b	0.06971272
239	0xbba0e0ec	-0.0049096253
240	0xbd03f49f	-0.03221571
241	0x3d9dabbe	0.07698773
242	0x3d8da16d	0.06915555
243	0x3d158b2b	0.036509674
244	0x3caaea85	0.02086378
245	0x3cb1f2d5	0.021722237
246	0x3da0b1ea	0.078464344
247	0xbcbc18b8	-0.022961006
248	0x3b988295	0.0046542385
249	0x3d482364	0.048861876
250	0x3d72bb48	0.059260637
251	0x3b71a4e8	0.0036871973
252	0x3d0df6e0	0.034659266
253	0xbd1e2395	-0.038608152
254	0x3c870732	0.016482923
255	0xbd003b7f	-0.03130674

net.4.weight f4 [2, 256]
0	0x3e12065e	0.14260241
1	0xbc96578b	-0.01835229
2	0x3e96b515	0.2943503
3	0x3e749daa	0.23888269
4	0x3d67bc58	0.056576103
5	0x3c60e990	0.013727561
6	0xbd5287a6	-0.051398896
7	0x3e8245d0	0.25443888
8	0x3c0fdb51	0.008780316
9	0xbd2fe696	-0.042944513
10	0x3e0b91d9	0.13629855
11	0x3e96e510	0.29471636
12	0xbc63ef8c	-0.013912093
13	0x3c85e297	0.016343398
14	0xbe8c09b6	-0.2735116
15	0x3c0cc8f8	0.008592837
16	0x3e1158dc	0.14194053
17	0xbcdfea09	-0.027333276
18	0xbd407e3c	-0.046995386
19	0x3dcf5309	0.101232596
20	0xbe37c500	-0.17946243
21	0xbd60d2f4	-0.05488868
22	0xbcdbb277	-0.026818497
23	0xbf165b95	-0.58733493
24	0xbc6eb08e	-0.014568461
25	0xbd62ee5e	-0.055403106
26	0x3cc8aa63	0.02449531
27	0x3dafb23f	0.085789196
28	0x3c1bf67b	0.009519215
29	0xbd120e80	-0.03565836
30	0xbd4f73b0	-0.050647438
31	0xbcb9b84b	-0.022670886
32	0xbd0a6837	-0.033790793
33	0x3de01d72	0.10943116
34	0x3df70946	0.12062316
35	0xbd6c1b4c	-0.05764322
36	0xbccdb3ce	-0.025110152
37	0x3c9bc9b6	0.019017082
38	0xbd1b0bdc	-0.037853107
39	0xbbd56e98	-0.006513428
40	0x3e94292b	0.2893766
41	0x3e9bc52d	0.3042387
42	0xbecb3fd0	-0.39697123
43	0x3e899047	0.26867887
44	0x3e3d7292	0.18500736
45	0xbd36f994	-0.04467161
46	0xbd6a2cb7	-0.05717155
47	0x3e326262	0.17420343
48	0x3ec675c5	0.38761726
49	0x3c9df310	0.01928094
50	0x3c81906a	0.015815932
51	0x3d6c382c	0.057670757
52	0x3c9d5619	0.019206094
53	0xbcf4e034	-0.029892065
54	0x3dbb3aaf	0.091420524
55	0x3e306296	0.17225108
56	0x3d0558cf	0.032555398
57	0xbc83677e	-0.01604056
58	0xbd4958a2	-0.049156792
59	0x3e86912a	0.26282626
60	0x3e98c00a	0.29834014
61	0x3d71cea4	0.05903496
62	0xbc60939f	-0.013707071
63	0x3de46f8d	0.11154089
64	0x3e85426d	0.2602724
65	0xbe633aa0	-0.22190332
66	0xbcb8e2d2	-0.022569094
67	0x3d3abf65	0.045592684
68	0x3d287299	0.041124914
69	0x3e204a02	0.15653232
70	0x3d208814	0.039192274
71	0xbc5ddca4	-0.013541374
72	0xbd26c83c	-0.040718302
73	0x3eaaebad	0.3338293
74	0xbd566646	-0.05234363
75	0x3e9416f1	0.28923753
76	0xbd4720bb	-0.0486152
77	0x3e3e5eeb	0.18590896
78	0x3bcd600f	0.0062675546
79	0x3edaee33	0.42759857
80	0xbea8713b	-0.32898888
81	0x3e2a7830	0.1664741
82	0xbf03875b	-0.5137841
83	0x3e8a96bc	0.27068126
84	0xbe6ba1a4	-0.2301088
85	0x3db0f9c0	0.08641386
86	0xbe88cb42	-0.26717573
87	0xbd6459f5	-0.055749852
88	0xbedd2561	-0.4319258
89	0xbcd64180	-0.02615428
90	0x3e82db24	0.25557816
91	0x3c74dd9f	0.014945417
92	0x3c94e664	0.018176265
93	0x3e493af1	0.1965139
94	0xbece9498	-0.40347743
95	0xbc9edb14	-0.019391574
96	0x3e1814d0	0.1485169
97	0x3e642c5c	0.22282547
98	0xbf224deb	-0.63400143
99	0xbc2453c4	-0.010029737
100	0x3ea6f6ca	0.3261016
101	0xbbaa6312	-0.0051997984
102	0x3e93633b	0.28786644
103	0xbca63357	-0.020288153
104	0x3e933a6b	0.28755507
105	0xbd45a1d2	-0.048250027
106	0xbd16a070	-0.0367741
107	0xbd25098b	-0.040292304
108	0x3a61b0f8	0.0008609439
109	0x3cfe4bac	0.031041943
110	0xbd0195a8	-0.031636864
111	0x3e941ea3	0.28929624
112	0xbd0027a4	-0.031287804
113	0xbf241cae	-0.6410626
114	0x3c1f0432	0.00970559
115	0xbd18850f	-0.03723627
116	0x3e36cb0e	0.17850897
117	0xbead7eac	-0.33885705
118	0x3cc58eb9	0.024115907
119	0x3e52305f	0.20526265
120	0x3c64d6d5	0.013967236
121	0x3ba9a25a	0.0051768245
122	0x3d3e7ced	0.046505857
123	0x3e90f87a	0.28314573
124	0xbc20719f	-0.009792714
125	0x3ac228a6	0.001481314
126	0x3d159a02	0.036523826
127	0x3ef45592	0.47721535
128	0xbd334682	-0.043768413
129	0xba21b8c4	-0.0006169195
130	0xbe34714d	-0.17621346
131	0xbd48a5a8	-0.048986107
132	0xbcc6b627	-0.024256779
133	0x3af34600	0.001856029
134	0x3d981a35	0.074268736
135	0xbd280d2e	-0.041028194
136	0x3b969eab	0.0045965514
137	0x3e1e1fad	0.15441771
138	0x3e78ced2	0.24297646
139	0x3de3affa	0.11117549
140	0x3e9ba33a	0.3039797
141	0xbd58191a	-0.052758314
142	0x3c9e0f70	0.01929447
143	0xbc11e6de	-0.008905141
144	0xbc7c609b	-0.015403892
145	0x3e9e0487	0.3086283
146	0x3e206ced	0.15666552
147	0x3e6c9463	0.2310348
148	0x3e3b4c76	0.18290886
149	0xbd651c64	-0.05593528
150	0xbc8c148b	-0.01709964
151	0xbeb638d2	-0.35590225
152	0x3d008da4	0.03138508
153	0xbc9d44e5	-0.01919789
154	0x3e9be319	0.304467
155	0x3dfae7ba	0.122512296
156	0x3da5cc63	0.08095624
157	0x3c1fbcb7	0.009749583
158	0x3e801a9c	0.250203
159	0x3e2876f0	0.16451621
160	0x3e7e9bc8	0.24864113
161	0x3b502300	0.0031759143
162	0x3cc4a282	0.024003271
163	0x3c4bb2cb	0.012432764
164	0xbd548d7c	-0.051892743
165	0xbafc7035	-0.0019259515
166	0x3d9ee23e	0.07757996
167	0x3e39a456	0.18129095
168	0xbd45abc7	-0.048259523
169	0x3e56a105	0.20959862
170	0xbd4355db	-0.0476893
171	0x3cdab47d	0.026697392
172	0x3e486964	0.19571453
173	0xbd3f8cbf	-0.046765085
174	0x3e078beb	0.13236968
175	0xbc65b19e	-0.014019398
176	0x3e93fc40	0.2890339
177	0xbc5ecf14	-0.013599176
178	0x3e82ca65	0.2554504
179	0xbada8714	-0.0016672336
180	0xbd530f50	-0.051528275
181	0xbdf82d2a	-0.12117989
182	0xbc9f5889	-0.019451397
183	0x3d1d1fc5	0.038360376
184	0x3d5fac47	0.054607656
185	0x3a96ae12	0.0011495969
186	0x3e7ee21a	0.24890938
187	0xbd3c2524	-0.045933858
188	0x3e63d309	0.22248472
189	0x3d29cbd4	0.04145415
190	0x3cbdc80f	0.023166684
191	0xbd0daf8e	-0.03459125
192	0x3d19a5f4	0.03751178
193	0x3caf729e	0.021416958
194	0xbc39302b	-0.011302988
195	0x3ddd9e57	0.108212166
196	0xbd5b0108	-0.05346778
197	0xbcb4cd9e	-0.022070702
198	0x3dc4a260	0.09601283
199	0xbd273dcc	-0.04083042
200	0x3e6904f1	0.22755791
201	0xbc3e865e	-0.011628715
202	0x3d29084a	0.04126767
203	0xbbbcadb0	-0.00575801
204	0x3ebf8215	0.37403932
205	0x3eaae577	0.33378193
206	0xbd081e3e	-0.033231966
207	0xbd29689b	-0.041359525
208	0xbd8e8426	-0.06958799
209	0x3e63105b	0.22174208
210	0x3e935ee9	0.28783348
211	0x3dfe5871	0.124192126
212	0x3d08b5b2	0.033376403
213	0x3e75b744	0.23995692
214	0x3c94a32c	0.018144213
215	0xbad592dd	-0.0016294379
216	0x3cee88e6	0.029118013
217	0x3b8f9e22	0.0043828646
218	0x3e4b3dc3	0.19847779
219	0xbce8ee43	-0.028433925
220	0x3d4b5792	0.04964406
221	0xbbc55183	-0.00602168
222	0xbb912180	-0.0044290423
223	0x3ec69e05	0.38792434
224	0xbd3a41b8	-0.04547283
225	0xbdb65f47	-0.089048915
226	0xbd2f5ee2	-0.042815097
227	0x3de37f3f	0.11108255
228	0x3d3a64cc	0.045506284
229	0x3e01740c	0.12641925
230	0x3e90c466	0.2827484
231	0xbc5b848d	-0.013398302
232	0xbd085a81	-0.033289436
233	0x3e407870	0.18795943
234	0xbc7eafc8	-0.015544839
235	0x3e2db438	0.16963279
236	0x3b5bc430	0.0033533685
237	0x3e969b6f	0.2941546
238	0x3e25a676	0.16176781
239	0xbc190f04	-0.009341959
240	0x3ce98cc3	0.028509503
241	0x3eb0c63e	0.34526247
242	0x3e2c7be9	0.16844143
243	0x3ead8e57	0.3389766
244	0xbd5e8cde	-0.05433356
245	0x3e28b75a	0.16476193
246	0x3ddcb8f6	0.10777466
247	0xbba714ac	-0.0050989
248	0x3d01d0d4	0.031693295
249	0x3c9fb10b	0.0194936
250	0x3e0b2ec0	0.13592052
251	0x3c0e3277	0.008679024
252	0x3e81acdf	0.25327203
253	0xbe87cf4e	-0.26525348
254	0xbf5a4ead	-0.852763
255	0xbd1b403c	-0.037903056

net.4.bias f4 [2]
0	0xbc79ecf2	-0.015254246
1	0x3ca7ebc9	0.020498173
