cartpole_best_model.pth (torch, 273216 bytes, 6 tensors)

net.0.weight f4 [256, 4]
0	0x3efbfc0d	0.49215737
1	0xbd8de0ad	-0.06927619
2	0x3fa1405e	1.2597768
3	0x3e9efddb	0.3105305
4	0xbd275ebe	-0.040861838
5	0x3f01b2ca	0.50663435
6	0x3e9c4a3d	0.3052539
7	0x3ef94fc5	0.48693672
8	0xbf826203	-1.0186161
9	0x3e7341ae	0.23755524
10	0xbf43d863	-0.76502055
11	0x3e3aa33f	0.18226336
12	0x3cbf12c2	0.023324374
13	0xbd05d25f	-0.03267133
14	0xbf9f36b3	-1.2438568
15	0xbe0a5e1d	-0.13512464
16	0x3c0c0715	0.00854661
17	0xbdd41acd	-0.10356674
18	0xbfb44684	-1.408402
19	0xbe3c3912	-0.18381146
20	0xbca1057b	-0.019655934
21	0xbe8edfaa	-0.27905017
22	0xbfa369d9	-1.2766677
23	0xbedd4f0d	-0.43224373
24	0x3ed07be6	0.40719527
25	0x3f3994a8	0.72492456
26	0xbed964ef	-0.4245982
27	0x3eab552e	0.33463424
28	0xbf58dc82	-0.8471147
29	0xbee28402	-0.4424134
30	0xbf585fc0	-0.845211
31	0xbe8fe88a	-0.281071
32	0x3f3549e8	0.70815897
33	0xbea8ee66	-0.32994384
34	0x3dad3c65	0.08458785
35	0x3eb35d5a	0.3503216
36	0x3f811077	1.008315
37	0xbea5003f	-0.3222675
38	0x3f0e2ab7	0.5553393
39	0x3ee0d2a2	0.439107
40	0x3ec26bd3	0.37972888
41	0x3da7d04f	0.081940286
42	0x3e9f91d6	0.31165951
43	0x3ed7bb53	0.42135105
44	0x3eb7e378	0.35915732
45	0x3ef90d30	0.48642874
46	0xbee32c89	-0.44369915
47	0x3e02cc62	0.12773278
48	0xbe9d53b8	-0.30727935
49	0x3e830500	0.25589752
50	0x3dc96851	0.0983435
51	0x3ec6e777	0.3884847
52	0xbf00914e	-0.5022172
53	0xbeda6f07	-0.42662832
54	0x3ebdaafa	0.37044507
55	0xbe5a5b11	-0.21323802
56	0x3f63b32a	0.8894526
57	0x3ede0fa4	0.43371308
58	0x3e6259ed	0.22104616
59	0x3dc64586	0.09681229
60	0xbf1c7638	-0.6111789
61	0x3da58e9e	0.08083843
62	0xbf3ccdec	-0.7375171
63	0xbe1df182	-0.15424159
64	0x3f868470	1.0509167
65	0x3d1a6e36	0.03770276
66	0x3e8c9fb8	0.27465606
67	0xbde47b64	-0.111563474
68	0x3ef7d8f5	0.48407713
69	0x3ed7e926	0.42170066
70	0x3d6a5269	0.0572075
71	0x3e540847	0.20706283
72	0x3f0814eb	0.5315692
73	0xbe7a69d7	-0.24454437
74	0xbf755f63	-0.95848674
75	0xbeeb0bf3	-0.45907554
76	0xbe0771bf	-0.13226984
77	0xbec9a9e2	-0.39387423
78	0x3f35fa73	0.7108528
79	0xbeca194f	-0.39472434
80	0x3f1e9fe9	0.61962754
81	0x3dc31339	0.09525151
82	0xbf4a36d6	-0.78989923
83	0xbd5f67f5	-0.0545425
84	0x3f244500	0.64167786
85	0xbea826be	-0.32842058
86	0xbfbd51b3	-1.4790558
87	0xbf0a1060	-0.53931236
88	0xbeb5706d	-0.35437337
89	0xbe80c22a	-0.25148135
90	0xbf3ebb84	-0.74504876
91	0xbdd663e1	-0.10468269
92	0xbf4d5fef	-0.8022451
93	0xbd86f972	-0.06590547
94	0x3e31d997	0.1736816
95	0xbee2496e	-0.44196647
96	0x3e5cd595	0.2156585
97	0xbcff7913	-0.031185662
98	0xbf8ebb12	-1.1150839
99	0x3d9e3229	0.07724411
100	0xbdb42046	-0.08795218
101	0xbe152f22	-0.14568761
102	0x3dd8c029	0.10583527
103	0xbd830774	-0.06397906
104	0xbead87ac	-0.33892572
105	0xbe10ba5e	-0.14133593
106	0xbf3993aa	-0.7249094
107	0xbeca1693	-0.39470348
108	0xbf3402b6	-0.70316637
109	0x3e1102e4	0.14161259
110	0x3cb4bb21	0.022061886
111	0xbe83c393	-0.2573515
112	0x3e8b6672	0.27226597
113	0xbe827808	-0.25482202
114	0x3e3a64cf	0.18202518
115	0xbe491473	-0.19636707
116	0x3ef5a7c0	0.47979546
117	0xbef6908c	-0.48157156
118	0xbf977399	-1.1832153
119	0xbd02310f	-0.031785067
120	0xbf135019	-0.57544094
121	0xbddb808f	-0.1071788
122	0xbfa16354	-1.2608438
123	0xbdab55e0	-0.08365989
124	0xbd59f8c5	-0.05321576
125	0xbecc5037	-0.3990495
126	0xbf0753bb	-0.5286214
127	0x3f235d4f	0.6381425
128	0xbf23226b	-0.6372439
129	0x3ca7383b	0.020412555
130	0xbf53ffdb	-0.8281228
131	0x3e1646f9	0.14675511
132	0x3e7c222f	0.24622415
133	0xbaa6d06a	-0.0012726907
134	0x3dfad67d	0.12247942
135	0x3f1b6fb8	0.60717344
136	0x3efa7a81	0.48921588
137	0xbe665bd5	-0.22495969
138	0x3eb9e667	0.36308596
139	0xbd585fe9	-0.052825842
140	0xbf1098b9	-0.56483036
141	0x3e6448fe	0.2229347
142	0xbe74c34b	-0.23902623
143	0xbd8b068d	-0.06788359
144	0x3f236f0a	0.6384131
145	0xbe3d8323	-0.18507056
146	0xbfe2a68c	-1.7707076
147	0xbe78453c	-0.24245161
148	0xbe002aa9	-0.12516274
149	0x3efea08a	0.49731857
150	0x3fbcad62	1.4740412
151	0xbd834f70	-0.06411636
152	0x3dc8a67e	0.09797381
153	0xbf38457f	-0.7198104
154	0xbfa23eb9	-1.2675391
155	0xbf1767fd	-0.5914305
156	0xbec5a709	-0.38604
157	0xbf0a66ed	-0.540633
158	0xbf89601a	-1.0732453
159	0xbf0499a4	-0.51796937
160	0x3f8c2b15	1.0950648
161	0x3d288702	0.04114438
162	0x3f87f5ee	1.0621927
163	0x3d6b8b6f	0.05750602
164	0xbf1f8776	-0.6231607
165	0xbbbd5893	-0.005778381
166	0xbf686d8d	-0.9079216
167	0x3b7d2647	0.0038627551
168	0xbdee452a	-0.11634286
169	0xbf3f9fba	-0.748531
170	0x3d3d274c	0.046180055
171	0x3cd7ff68	0.026366904
172	0xbf2399b4	-0.6390641
173	0x3f138104	0.5761874
174	0x3fdfdcf7	1.7489308
175	0x3ed327f1	0.4124141
176	0x3ef142b8	0.47121215
177	0xbee03a2e	-0.43794388
178	0xbe9548f7	-0.2915723
179	0xbdbf4e15	-0.09341065
180	0xbe4e81e9	-0.20166744
181	0x3f2c970e	0.6741799
182	0x3f01c172	0.506858
183	0xbe18de82	-0.1492863
184	0xbe4c8e7d	-0.1997623
185	0x3ef546ca	0.4790557
186	0x3f80bf3e	1.0058362
187	0xbef4e7cb	-0.47833094
188	0xbe45d381	-0.19318964
189	0x3ea57678	0.32316947
190	0x3f17c78c	0.5928886
191	0xbee67142	-0.45008284
192	0xbf689d54	-0.90865064
193	0x3ee96e95	0.4559218
194	0x3f2f7aa5	0.68546516
195	0x3eec69e3	0.46174535
196	0xbf228d25	-0.6349662
197	0xbc9db771	-0.01925251
198	0xbee38327	-0.44436
199	0xbe06310f	-0.13104652
200	0xbdeb3388	-0.11484438
201	0x3e9097ea	0.282409
202	0x3f2d62d2	0.6772891
203	0xbeeb3c35	-0.45944372
204	0xbdc28ea2	-0.09499861
205	0xbca6dc74	-0.020368792
206	0xbf58775d	-0.84557134
207	0xbdfed145	-0.12442259
208	0x3f679801	0.90466315
209	0x3d96e40b	0.073677145
210	0xbebc7de8	-0.3681481
211	0xbdf683f5	-0.120368876
212	0x3f803282	1.0015414
213	0xbec19d7c	-0.37815464
214	0xbf00ec50	-0.50360584
215	0xbe8cbe6d	-0.27489033
216	0x3e81a3ac	0.25320184
217	0x3f740899	0.9532562
218	0xbf38e96d	-0.7223118
219	0x3f06ebab	0.5270335
220	0xbd7e263c	-0.062048182
221	0x3ca87437	0.020563228
222	0x3f18547d	0.5950392
223	0x3e69e979	0.22842969
224	0xbf86d596	-1.0533931
225	0xbf0e9ba5	-0.55706245
226	0xbc840837	-0.016117198
227	0xbeb81590	-0.3595395
228	0x3dcd3a6b	0.10020908
229	0xbe3a03d2	-0.1816552
230	0x3ec13aa0	0.3774004
231	0xbe6c1352	-0.23054245
232	0xbe0c4a96	-0.13700327
233	0xbe4ae24c	-0.19812888
234	0xbfd6247b	-1.6729883
235	0xbecf4268	-0.4048035
236	0xbf3dbacb	-0.7411315
237	0xbe703a43	-0.23459725
238	0xbf580898	-0.84388113
239	0xbe404541	-0.18776418
240	0x3f84a606	1.0363166
241	0xbdc558a2	-0.09636046
242	0xbd8a67b6	-0.067580625
243	0xbe9145e7	-0.28373644
244	0x3f812d19	1.0091888
245	0x3e9a7044	0.30163777
246	0xbd9b48b6	-0.07582228
247	0xbd0994c9	-0.03358916
248	0xbb3ccdd1	-0.00288092
249	0x3eb6bb77	0.356899
250	0xbf1cfebe	-0.61326206
251	0x3d835c65	0.06414107
252	0xbf9b9f38	-1.2157965
253	0x3deaa805	0.114578284
254	0x3d29a386	0.041415714
255	0x3df78ab7	0.12087005

net.0.bias f4 [256]
0	0x3dbd6193	0.092471264
1	0x3ee6bc87	0.4506571
2	0xbd8d1ecf	-0.06890642
3	0x3eb8072f	0.3594298
4	0xbeed2753	-0.46319064
5	0xbeca8024	-0.3955089
6	0x3eea49bb	0.45759377
7	0x3e50dd81	0.20396997
8	0xbd5ad1fc	-0.053422913
9	0x3e1efc01	0.1552582
10	0xbdd53ecc	-0.10412368
11	0x3f082251	0.5317736
12	0x3eece40a	0.4626773
13	0x3ea8f0b9	0.32996157
14	0xbdcc3189	-0.099703856
15	0x3f0900ef	0.5351705
16	0xbe837a26	-0.2567913
17	0xba93b217	-0.0011268285
18	0x3e7caa93	0.24674444
19	0x3ed469dc	0.41487014
20	0x3eb26718	0.3484428
21	0xbeb9843f	-0.36233708
22	0x3e19f079	0.1503314
23	0x3d414b6e	0.047191076
24	0x3ead16b7	0.33806393
25	0x3ec3a766	0.38213652
26	0xbeccd02e	-0.40002578
27	0xbefab781	-0.48968127
28	0xbec5f22e	-0.3866133
29	0xbf153720	-0.5828724
30	0xbed31240	-0.4122486
31	0xbea9b3f8	-0.33145118
32	0x3ef13e0e	0.47117656
33	0x3e31dad9	0.1736864
34	0x3ecc63e6	0.39919966
35	0x3f07faa5	0.5311683
36	0x3ea0c4a7	0.31400034
37	0xbe920a76	-0.28523606
38	0xbd28f6fc	-0.041251168
39	0xbd496881	-0.04917193
40	0xbe96d428	-0.29458737
41	0x3e308273	0.17237262
42	0xbea47e04	-0.32127392
43	0x3d2ba8e7	0.041909125
44	0x3eba2e53	0.36363468
45	0x3e76848f	0.24074005
46	0x3e65b7bc	0.2243337
47	0xbdc13948	-0.09434754
48	0xbe9fa292	-0.3117872
49	0xbebc3696	-0.36760396
50	0xbe4d9ddb	-0.20079748
51	0x3ed9774b	0.42473826
52	0xbf075fe9	-0.5288072
53	0xbe88f2aa	-0.26747638
54	0x3ecf7f80	0.40526962
55	0x3ee1e7fb	0.441223
56	0xbcc87a22	-0.0244723
57	0xbe9b43fe	-0.3032531
58	0xbe82c578	-0.25541282
59	0xbe3c6aa6	-0.18400058
60	0x3e0466ce	0.12929842
61	0xbeb63e3e	-0.35594362
62	0xbeef73a2	-0.46767908
63	0x3e59f128	0.212834
64	0x3d96f11d	0.073702075
65	0xbebfb499	-0.37442473
66	0x3ea505ca	0.3223098
67	0x3e0e786c	0.13913125
68	0xbe10ec6a	-0.14152685
69	0x3ebb60da	0.3659733
70	0xbf02d9a2	-0.5111333
71	0xbe4072f5	-0.18793853
72	0xbef9abfe	-0.48764032
73	0x3e03b19c	0.12860721
74	0x3efd335a	0.4945324
75	0xbed34f6c	-0.41271532
76	0xbe7f7e4e	-0.24950525
77	0xbf16892f	-0.58803076
78	0x3e2e6360	0.17030096
79	0xbf151ca7	-0.58246845
80	0xbf14a203	-0.5805971
81	0xbeb8005a	-0.35937768
82	0xbf19a4ce	-0.60017097
83	0xbea8a4ea	-0.3293832
84	0xbe4fc784	-0.20290953
85	0x3e9fd931	0.3122039
86	0xbf0acda4	-0.5422003
87	0xbf170478	-0.58991194
88	0x3ed7f013	0.4217535
89	0xbeafeefc	-0.34362018
90	0x3e581d8d	0.21105023
91	0x3e774b3f	0.24149798
92	0x3e6c7a24	0.23093468
93	0x3ed6193f	0.41816136
94	0x3eb89107	0.36048147
95	0x3f15adc4	0.5846827
96	0xbe9a434b	-0.30129465
97	0x3da8a285	0.08234123
98	0xbf2e6697	-0.6812529
99	0xbde62b4c	-0.11238727
100	0xbf167e3e	-0.5878638
101	0xbeca5013	-0.39514217
102	0xbd8cc9a2	-0.06874396
103	0xbe7ec9e3	-0.24881701
104	0x3e2e70ed	0.17035265
105	0x3ecd3c57	0.40085098
106	0x3e193d17	0.1496471
107	0x3e4cd9c4	0.20004946
108	0xbeac8400	-0.33694458
109	0x3f06cb6a	0.52654135
110	0x3ea1cd1b	0.31601796
111	0xbea504f2	-0.32230335
112	0xbe95d77b	-0.2926596
113	0xbf15b4fa	-0.58479273
114	0x3c825018	0.015907332
115	0x3f0bd0ec	0.54615664
116	0xbe896410	-0.26834154
117	0x3ee240e5	0.44190136
118	0x3e5fd577	0.21858774
119	0x3e101df1	0.14073922
120	0x3eb9db24	0.36300004
121	0x3e807252	0.2508722
122	0x3e815fed	0.25268498
123	0xbee79da7	-0.45237467
124	0xbd0edabd	-0.034876574
125	0xbd8e6d66	-0.0695446
126	0xbd7b47e1	-0.061347846
127	0x3ef2adc3	0.47398195
128	0x3dce8106	0.10083203
129	0x3ee551e6	0.44789046
130	0xbeb9bc93	-0.36276683
131	0xbe68e657	-0.22744118
132	0xbebc341b	-0.36758503
133	0x3eb04229	0.34425476
134	0x3e9fcf2e	0.31212753
135	0x3be066db	0.006848199
136	0xbe5b1de8	-0.21398127
137	0x3cd5da70	0.026105136
138	0xbee7c984	-0.45270932
139	0x3ec7fcc0	0.3906002
140	0x3efbd2d4	0.49184287
141	0xbe6b47d5	-0.2297662
142	0xbf04a725	-0.5181754
143	0x3e54f443	0.20796303
144	0xbea4377c	-0.3207358
145	0x3ea72687	0.32646582
146	0xbe839b93	-0.2570463
147	0xbe9a0f95	-0.30090013
148	0x3d90f561	0.07078052
149	0xbeb206fc	-0.34770954
150	0x3e99aae9	0.30013207
151	0xbe160e66	-0.1465393
152	0x3e6122ec	0.21985978
153	0x3ed946bc	0.4243678
154	0x3eae6aff	0.34066007
155	0x3e5ea072	0.21740893
156	0x3e6d26c5	0.2315932
157	0xbec2fa7d	-0.38081732
158	0xbf3de53c	-0.7417791
159	0x3b3f532f	0.0029193868
160	0xbea85842	-0.32879835
161	0xbee6edb2	-0.45103222
162	0x3ebe2e33	0.37144622
163	0x3e8ec6f2	0.27886158
164	0xbe2da183	-0.16956143
165	0xbea39cb7	-0.319555
166	0xbee1b9d8	-0.440871
167	0xbecb928d	-0.39760247
168	0x3f045e86	0.5170673
169	0xbee13c82	-0.43991476
170	0xbf31b3f8	-0.69415236
171	0x3e93acf4	0.2884289
172	0xbeea4869	-0.4575837
173	0xbf1edfdc	-0.6206033
174	0x3e71303a	0.23553553
175	0x3edecfcd	0.43517914
176	0xbf1fb3df	-0.62383837
177	0xbeee7c13	-0.46579036
178	0x3e7425ee	0.23842594
179	0x3e93d58b	0.28873858
180	0x3ec972bc	0.39345348
181	0xbe85d061	-0.26135543
182	0xbbca5e6c	-0.0061758067
183	0x3efe1bd5	0.4963061
184	0xbde01ebb	-0.10943361
185	0xbec2385b	-0.3793362
186	0xbed9eb7e	-0.4256248
187	0xbccb2970	-0.024800032
188	0x3eb28c6b	0.34872755
189	0x3e9bfc44	0.304659
190	0xbf0b7479	-0.544746
191	0x3e939030	0.28820944
192	0xbe4c5d42	-0.1995745
193	0xbf1c2c3f	-0.61005014
194	0xbf01da4f	-0.5072374
195	0xbf0ac717	-0.54210037
196	0xbf448061	-0.7675839
197	0x3e8371b8	0.25672698
198	0x3e261475	0.16218741
199	0xbe4a07dc	-0.1972956
200	0x3ce97a7e	0.028500792
201	0xbeb83999	-0.35981444
202	0x3e7bcb38	0.2458924
203	0x3ec419e7	0.38301012
204	0xbe74e043	-0.23913674
205	0x3ecb209e	0.39673322
206	0x3ed83e30	0.42234945
207	0xbefb3fa7	-0.49072
208	0xbe184c1c	-0.14872783
209	0x3f0f095d	0.5587366
210	0x3cfb922a	0.030709345
211	0x3e71752d	0.23579855
212	0x3f01dd4c	0.507283
213	0xbec6bd1d	-0.38816157
214	0xbe59e416	-0.21278414
215	0xbe8d3777	-0.2758138
216	0x3e1526bc	0.14565557
217	0xbed640b9	-0.41846254
218	0xbe74c279	-0.2390231
219	0xbe1ea585	-0.15492828
220	0x3e76f5f3	0.2411726
221	0x3c683d19	0.014174723
222	0x3e935509	0.28775814
223	0x3ed64832	0.41851956
224	0xbe9790bc	-0.2960261
225	0xbd0230d6	-0.031784855
226	0x3edc91ea	0.43080074
227	0x3ef991dd	0.48744097
228	0x3d0af9c3	0.033929598
229	0xbdcd9f76	-0.100401804
230	0xbf25c711	-0.64756876
231	0x3e8f2c32	0.27963406
232	0xbed7102a	-0.4200452
233	0xbf0f58b2	-0.55994713
234	0xbec95865	-0.39325252
235	0xbf287522	-0.6580373
236	0xbe22202c	-0.15832585
237	0x3f0bfda6	0.5468391
238	0xbf693219	-0.9109207
239	0x3e0e718c	0.13910502
240	0xbef60a84	-0.48054898
241	0x3e51ff6c	0.20507592
242	0xbeffa33e	-0.4992923
243	0xbe210493	-0.15724401
244	0xbe3b7788	-0.18307316
245	0x3e14ee34	0.14543992
246	0x3e28e77a	0.16494551
247	0xbf05fda1	-0.5234013
248	0x3eeaa7e5	0.45831218
249	0xbe33fedb	-0.17577688
250	0x3ebe3007	0.37146017
251	0x3ed058a7	0.40692636
252	0xbf08e1ff	-0.5346984
253	0x3e9cec6a	0.3064912
254	0x3e3fee60	0.18743277
255	0x3df01066	0.11721878

net.2.weight f4 [256, 256]
0	0xbbeaed0c	-0.0071693715
1	0x3df994fc	0.1218662
2	0xbf4fbbae	-0.8114575
3	0x3d865fdc	0.065612525
4	0xbf820d44	-1.0160298
5	0xc02bfe28	-2.6873875
6	0x3d69cab3	0.057078075
7	0x3d3da139	0.046296332
8	0xbdb30212	-0.08740629
9	0xbdfb6afe	-0.122762665
10	0x3f26df58	0.65184546
11	0x3d942897	0.072343044
12	0x3ddf13fd	0.10892484
13	0x3dc5f8a4	0.09666565
14	0x3d8d456d	0.068980075
15	0x3c724109	0.014786013
16	0xbf8aa609	-1.083192
17	0x3e4d154b	0.20027654
18	0x39d1043c	0.0003986674
19	0x3d4583ec	0.048221514
20	0x3d66b0ec	0.05632107
21	0xbdd80543	-0.105478786
22	0xbc488fd7	-0.012241325
23	0xbe878f68	-0.26476598
24	0xbc679c5a	-0.014136398
25	0x3d8960e9	0.06707937
26	0xbf2923d7	-0.6607031
27	0x3d751582	0.059834965
28	0xbd09643e	-0.033542864
29	0xbed4fe3e	-0.4160022
30	0xbfafbc55	-1.3729349
31	0xbe84ab72	-0.25912052
32	0x3cfdcc88	0.030981317
33	0xbe1246fe	-0.14284894
34	0x3cfde007	0.030990614
35	0x3ddbdeb2	0.10735835
36	0xbdb6c267	-0.08923798
37	0x3e0128ee	0.1261327
38	0xc019e86b	-2.4048107
39	0x3f24bdf5	0.6435235
40	0xbfaae74b	-1.3351835
41	0xbeff18d8	-0.49823642
42	0xbf09e1bd	-0.53860074
43	0xbeaeb4a2	-0.34122187
44	0x3d5b09ac	0.05347602
45	0xbe1e673d	-0.1546907
46	0x3bc2d332	0.0059455866
47	0xbe65c598	-0.22438657
48	0x3eb92f57	0.3616893
49	0xbfb56b35	-1.4173342
50	0xbdbef4eb	-0.09324058
51	0x3d6c487d	0.057686318
52	0xbea41150	-0.32044458
53	0xbf854c7a	-1.0413964
54	0x3e27b78e	0.16378614
55	0x3c1333d1	0.008984522
56	0x3e3ada89	0.18247427
57	0x3c9264e0	0.017870367
58	0xbfc42f2e	-1.5326898
59	0x3f928623	1.1447185
60	0xbf404c74	-0.7511666
61	0xbf314327	-0.6924309
62	0x3ef6db1c	0.48214042
63	0x3e162708	0.14663327
64	0xbe5f2e41	-0.21794988
65	0xbf781b8c	-0.96917033
66	0x3d8bbacc	0.06822738
67	0x3e0b1a00	0.13584137
68	0xbfd4c9c6	-1.6624076
69	0x3dbfc6da	0.093641
70	0xbd037564	-0.032094374
71	0x3f2bdad1	0.6713076
72	0xbfc1f01b	-1.5151399
73	0xbdd24f76	-0.10269062
74	0x3dec3fd1	0.115356095
75	0xbfeee08d	-1.8662277
76	0x3eb6d92a	0.35712558
77	0xbf47e387	-0.78081554
78	0xbdbbcc17	-0.091697864
79	0xbf091038	-0.5354037
80	0xbe065d75	-0.13121589
81	0x3e928871	0.28619722
82	0xbecf173b	-0.4044741
83	0x3c39a400	0.011330605
84	0xbfa5eb5f	-1.2962455
85	0xbd8418da	-0.064500526
86	0xbf257c00	-0.64642334
87	0x3f219778	0.6312175
88	0x3824267c	3.913649e-05
89	0xbe977b7a	-0.29586393
90	0x3da21b7b	0.07915398
91	0x3e165a5a	0.14682904
92	0x3e218a0c	0.15775317
93	0x3d9d7c3b	0.07689711
94	0xbcff712c	-0.031181894
95	0x3dac5acd	0.084157564
96	0xbeb0ba9e	-0.34517378
97	0x3d26d77f	0.040732857
98	0xbf283cc5	-0.65717727
99	0xbcf4cf33	-0.029883957
100	0xbddd3a50	-0.10802138
101	0xbebb675c	-0.36602294
102	0xbe6563f0	-0.22401404
103	0x3e8a02ff	0.2695541
104	0xbd5a7dfb	-0.0533428
105	0x3dc5010e	0.09619342
106	0xbe788dd9	-0.2427286
107	0xbe54a827	-0.2076727
108	0xbcbf5748	-0.023357049
109	0x3c50b960	0.012739509
110	0x3d67a2a8	0.056551605
111	0xbf8e979e	-1.114002
112	0xbfd14376	-1.6348712
113	0xbf14ea66	-0.58170164
114	0x3e785ece	0.24254915
115	0xbca97bc6	-0.020688903
116	0x3e3e8bd3	0.18608026
117	0x3d873981	0.06602765
118	0x3e2fcc9f	0.171679
119	0xbd4d73c8	-0.050159246
120	0x3d94c3ca	0.07263906
121	0x3d844a05	0.064594306
122	0x3c3d5761	0.011556477
123	0xbf0eb5db	-0.5574624
124	0xbf767883	-0.96277636
125	0x3f798e74	0.9748299
126	0x3f490cd9	0.7853523
127	0x3d226246	0.039644502
128	0x3e9a32fd	0.30117026
129	0x3ccd40be	0.025055286
130	0x3db7744c	0.08957729
131	0xbffb991d	-1.9656101
132	0x3d6c4d82	0.057691105
133	0x3db1a661	0.086743124
134	0x3e0b72e9	0.13618053
135	0xbd163d71	-0.03667969
136	0x3fc295ea	1.5202
137	0xbf25252d	-0.6450985
138	0x400c6a26	2.1939788
139	0x3d1ce125	0.038300652
140	0x3d323b89	0.04351381
141	0xbea07ff2	-0.31347615
142	0xbef117bb	-0.47088417
143	0x3da76101	0.08172799
144	0x3e65f00d	0.22454853
145	0x3d8c4509	0.06849105
146	0x3e428ee3	0.1899982
147	0xbd37766d	-0.044790674
148	0x3e911403	0.2833558
149	0xbe026b9a	-0.12736359
150	0x3e49c231	0.19702984
151	0x3faaa309	1.3331004
152	0x3e7bc02b	0.24585025
153	0x3e1a568d	0.15072079
154	0x3e3c9756	0.18417105
155	0x3df15c82	0.117852226
156	0xb9b3912b	-0.000342497
157	0xbec9335a	-0.3929699
158	0xbef4650f	-0.47733352
159	0xbefd2e39	-0.49449328
160	0xc00f1bc0	-2.2360687
161	0xbd3b480a	-0.045723
162	0x3dfc64d1	0.12323917
163	0x3d37c7f0	0.04486841
164	0xbfa6b0a2	-1.3022654
165	0xbfe4415c	-1.7832446
166	0xbf11b61e	-0.56918514
167	0xbe3412b7	-0.17585264
168	0xbc84272d	-0.016131962
169	0x3ffaa058	1.9580183
170	0xbe14c97d	-0.14529987
171	0x3a1d4250	0.0005998956
172	0xbd640178	-0.055665463
173	0xbe00dea2	-0.12584928
174	0xbd3b7280	-0.045763493
175	0x3d5229fa	0.051309563
176	0xbee09ef5	-0.43871275
177	0xbf20791b	-0.6268479
178	0x3e2d09fa	0.16898337
179	0x3e52403c	0.20532316
180	0xbd34c1d6	-0.04413017
181	0x3f0c98f7	0.54920906
182	0x3e89e9a3	0.26936063
183	0x3b450689	0.003006371
184	0x3eeec01c	0.46630943
185	0xbe1fa47b	-0.15590088
186	0xbe6e9d7c	-0.23302263
187	0x3ecd7810	0.40130663
188	0x3e0edf34	0.13952333
189	0xbd78bc59	-0.060726497
190	0x3d7c0b4b	0.061534207
191	0x3d865bdb	0.06560489
192	0xbfdf0189	-1.7422343
193	0xbe380f6c	-0.17974633
194	0xbe22e0bb	-0.1590604
195	0xbfdd1210	-1.7271137
196	0x3bb53184	0.0055295844
197	0xbe8ee578	-0.27909446
198	0x3e8f0a14	0.27937376
199	0xbe4a3eaf	-0.19750474
200	0x3e1e67bb	0.15469258
201	0xbecd175c	-0.40056884
202	0x3d2a7088	0.041611224
203	0x3da1d176	0.0790128
204	0xbf889942	-1.067177
205	0x3dd794f5	0.10526458
206	0x3bbd2613	0.005772361
207	0xbef152b1	-0.471334
208	0xbe621736	-0.22079167
209	0xbc506947	-0.012720413
210	0x3e321c5f	0.17393635
211	0x3d930d00	0.07180214
212	0x3cf04e6a	0.029334266
213	0x3e35989a	0.17733994
214	0xbfd8c88a	-1.69362
215	0xbe3fb5f5	-0.18721755
216	0xbd89762c	-0.067119926
217	0xbf2f3d80	-0.68453217
218	0xbcf92a14	-0.030415572
219	0xbf188409	-0.5957647
220	0xbc1c82eb	-0.009552698
221	0x3ece2382	0.40261465
222	0xbd47d8d5	-0.04879077
223	0x3d6d27e0	0.057899356
224	0x3eb922f8	0.36159492
225	0xbf2f0372	-0.6836463
226	0x3da1c130	0.07898176
227	0x3db6bc36	0.08922617
228	0xbf10faff	-0.5663299
229	0x3fd9b812	1.7009299
230	0xbf035fe2	-0.5131818
231	0x3dafd44e	0.08585416
232	0xbf1be08e	-0.6088952
233	0xbdc63413	-0.09677901
234	0xbebb6df0	-0.36607313
235	0xbecc5eed	-0.39916173
236	0xbee98d42	-0.45615584
237	0x3e04c090	0.12964082
238	0xbba36632	-0.004986548
239	0xbcd5b697	-0.026088042
240	0x3d3b032a	0.045657314
241	0x3cab7a92	0.02093247
242	0xbec1de67	-0.37864992
243	0xbfc5843d	-1.5430981
244	0xbf7c09dd	-0.9845255
245	0x3e899346	0.26870173
246	0xbde28e7c	-0.11062333
247	0xbfb130a5	-1.384297
248	0x3c09735c	0.00838932
249	0x3ed1a82b	0.40948614
250	0x3d790ace	0.06080132
251	0x3d2bb968	0.041924864
252	0xbfde8049	-1.73829
253	0x3d01f1cc	0.031724736
254	0xbf761791	-0.9612971
255	0x3e944267	0.2895691

net.2.bias f4 [256]
0	0x3e08e2ef	0.13367818
1	0x3e5133fb	0.20429985
2	0x3aa389ba	0.0012476959
3	0x3b916085	0.004436555
4	0xbcf65d22	-0.030073706
5	0x3ce4ac76	0.027914267
6	0xbd64b035	-0.055832107
7	0xbd368456	-0.0445598
8	0x3e0ad088	0.13556111
9	0x3c7f3659	0.015576922
10	0x3d554924	0.052071705
11	0x3dc81999	0.09770507
12	0xbca56306	-0.02018882
13	0x3e56679b	0.2093796
14	0x3e15bf72	0.14623812
15	0x3e06d86e	0.13168499
16	0xbd61c97c	-0.05512379
17	0x3b9377a8	0.004500348
18	0xbe4eadc7	-0.20183478
19	0xbb5f25c4	-0.003404961
20	0x3c81b2ed	0.015832389
21	0x3e02f107	0.12787257
22	0x3b6c6101	0.003606856
23	0xba654077	-0.0008745263
24	0x3c3090b5	0.010776688
25	0xbc0753a6	-0.008259689
26	0x3d8b81e4	0.06811884
27	0x3dde78e4	0.10862902
28	0x3d829545	0.06376127
29	0x3e0fee48	0.14055741
30	0x3bea9d33	0.007159853
31	0x3d0a5b71	0.03377861
32	0xbc8848af	-0.01663622
33	0x3da3df88	0.080016196
34	0xbd71391d	-0.058892358
35	0xbd9105de	-0.07081197
36	0xbdb5fa06	-0.08885579
37	0x3e07cc80	0.13261604
38	0x3dc37ea4	0.09545639
39	0x3e3c8528	0.1841017
40	0xbd327036	-0.043564044
41	0xbd9cc929	-0.07655556
42	0x3ceaa58c	0.028643392
43	0x3c49932d	0.012303156
44	0xbd92276d	-0.07136426
45	0xbd70aea1	-0.05876029
46	0x3dd6a4db	0.104806624
47	0x3da64368	0.081183255
48	0x3db5faf4	0.08885756
49	0xbd110ab9	-0.035410617
50	0xbc87c968	-0.01657553
51	0xbd2f5142	-0.042802103
52	0x3ddbf03b	0.1073918
53	0x3cabfc40	0.020994306
54	0xbd80e726	-0.06294088
55	0xbd9292be	-0.07156895
56	0xbcc1a915	-0.023640195
57	0xbb54b923	-0.0032458983
58	0x3ccf7608	0.025324836
59	0xbcfd4fff	-0.030921934
60	0xbce1b60b	-0.027552625
61	0xbbbc890a	-0.005753641
62	0xbd27b324	-0.040942326
63	0x3cda6197	0.026657863
64	0xbd1e9e65	-0.038725276
65	0xbc6a947a	-0.014317626
66	0x3e376183	0.17908292
67	0x3dc26e05	0.09493641
68	0xbd8f3475	-0.06992427
69	0x3cf5686a	0.029957015
70	0x3dd1837c	0.10230157
71	0x3e15a76f	0.14614652
72	0xbd7d0c6c	-0.061779425
73	0xbdbba1d8	-0.091617286
74	0x3dbb0134	0.09131089
75	0x3bb124df	0.0054060067
76	0x3d51c104	0.051209465
77	0xbd8f2a52	-0.06990494
78	0x3e49c66f	0.19704603
79	0x3e57e183	0.2108212
80	0x3e101ee0	0.14074278
81	0x3d453f90	0.04815632
82	0xbd2a223f	-0.041536566
83	0xbca88e41	-0.020575644
84	0xbd62d6d3	-0.055380654
85	0x3e008472	0.12550524
86	0xbd51d7dd	-0.051231254
87	0xbdad1807	-0.084518485
88	0x3d5bb574	0.053639844
89	0xbd91a2bc	-0.07111117
90	0xbce7a70e	-0.0282779
91	0x3d361299	0.04445133
92	0x3e1a87c6	0.15090856
93	0x3d2fdcfa	0.04293535
94	0x3d158fa0	0.036513925
95	0xbccbd4c5	-0.02488173
96	0x3df95e02	0.12176134
97	0x3e0c80d4	0.13721019
98	0xbe9c5ddd	-0.30540362
99	0x3e13be54	0.14428073
100	0xb8df253c	-0.00010640404
101	0xbd90f880	-0.070786476
102	0x3cce2e1b	0.02516847
103	0x3db35e8c	0.08758268
104	0x3ddfa4e1	0.1092012
105	0x3db42816	0.08796708
106	0xbc4fa8f0	-0.012674555
107	0xbc829a96	-0.015942853
108	0x3e436825	0.19082697
109	0x3d94635f	0.07245516
110	0x3e12877b	0.14309494
111	0x3dc4067c	0.09571549
112	0x3d4e0c23	0.050304543
113	0xbcadbcf9	-0.021208273
114	0x3df4a629	0.11945755
115	0xbd2fd07c	-0.042923436
116	0x3d32c94c	0.043649003
117	0x3e23f134	0.1600998
118	0x3c2adb3e	0.010428248
119	0xbc54c12a	-0.012985507
120	0xbd3e0c32	-0.04639835
121	0x3c2ca651	0.0105377
122	0x3de82d25	0.11336736
123	0xbe1966da	-0.14980641
124	0x3dd7bc03	0.10533907
125	0x3e2e04f9	0.16994084
126	0x3d016a02	0.031595238
127	0x3d613a5b	0.054987293
128	0x3dd707dc	0.10499546
129	0x3d425cde	0.047451846
130	0x3bf2ef6b	0.0074137948
131	0x3e1848e9	0.14871563
132	0xbd16673d	-0.03671955
133	0x3e24b0bf	0.16083048
134	0xbd38e405	-0.04513933
135	0x3e4f7db9	0.20262803
136	0x3dde0ca7	0.10842257
137	0x3db3dd66	0.08782463
138	0x3c362468	0.011117078
139	0x3dc265b5	0.09492055
140	0x3ddae7b5	0.10688726
141	0x3e0f4cde	0.13994166
142	0xbcdf3a41	-0.027249457
143	0x3dfa5c64	0.12224653
144	0xbd7f1941	-0.062279943
145	0x3d6ab544	0.057301775
146	0x3d913624	0.07090405
147	0x3dfd45b8	0.123668134
148	0x3dbe5d12	0.092950955
149	0x3cfa5017	0.030555768
150	0x3df134bb	0.11777636
151	0x3d56a4f6	0.052403413
152	0x3e002345	0.12513454
153	0x3e01096a	0.12601247
154	0x3d90cfc7	0.070708804
155	0x3db869a8	0.09004527
156	0x3de4ceda	0.11172266
157	0x3c97bc58	0.018522426
158	0xbd5a7b29	-0.05334011
159	0x3dd1b727	0.10240012
160	0x3e2c7ad6	0.16843733
161	0xbcdfaa4e	-0.027302887
162	0xbd35e397	-0.0444065
163	0x3c7afc45	0.015318935
164	0x3e1a4b49	0.15067782
165	0x3e572739	0.21011056
166	0x3e27bcfb	0.16380684
167	0xbbf26780	-0.007397592
168	0x3da21ce2	0.07915665
169	0xbd79b426	-0.06096282
170	0xbd2e49a1	-0.042550687
171	0x3da3c3e8	0.079963505
172	0x3d3495c8	0.044088155
173	0x3d342452	0.04397995
174	0x3d8a3ea3	0.06750228
175	0x3e17755b	0.14790861
176	0xbcd43e8f	-0.025908737
177	0x3d1c356e	0.038136892
178	0x3e14ece2	0.14543489
179	0x3dc55923	0.09636142
180	0xbd42511e	-0.04744064
181	0x3e316664	0.17324215
182	0xbd8ba949	-0.06819398
183	0x3e3bc884	0.1833821
184	0xbdc7b9ef	-0.09752261
185	0x3dbe18fa	0.09282108
186	0x3cafa607	0.021441473
187	0x3e39301a	0.18084756
188	0x3db21909	0.08696181
189	0x3df0c93f	0.11757135
190	0x3deacb89	0.114646025
191	0x3c830c60	0.015997112
192	0xbd22bd1b	-0.039731126
193	0x3e085405	0.13313301
194	0xbd16dbd4	-0.03683074
195	0xbd12a32c	-0.035800144
196	0x3e198465	0.14991911
197	0x3e043274	0.12909871
198	0x3e183e63	0.14867549
199	0x3e0d60f0	0.1380651
200	0xbb83ee47	-0.0040262076
201	0xbcce9df5	-0.025221804
202	0xbd004e07	-0.031324413
203	0x3c855edc	0.016280584
204	0xbd0f67aa	-0.03501097
205	0x3e3c3b26	0.18381938
206	0x3e3259a3	0.17417006
207	0xbd476787	-0.048682716
208	0xbcba9188	-0.022774473
209	0x3e29c995	0.16580804
210	0x3e030b01	0.12797166
211	0xbd0336eb	-0.032034796
212	0xbea0456b	-0.31302962
213	0x3d41d9c2	0.04732681
214	0xbd8ddda9	-0.06927044
215	0x3cd31a71	0.025769444
216	0x3c76dbbd	0.015067038
217	0xbd6383b7	-0.055545535
218	0x3d215cc1	0.039395098
219	0x3df8c5ba	0.12147088
220	0x3e205d7d	0.15660663
221	0x3e284952	0.1643422
222	0xbd8b3d82	-0.06798841
223	0x3da8f1a2	0.08249213
224	0x3d92ba4c	0.071644396
225	0x3d63102d	0.05543535
226	0x3d9383c2	0.07202865
227	0xbe059a62	-0.13047174
228	0x3dd9f5c6	0.10642581
229	0xbce1793f	-0.027523635
230	0x3d2bfbc7	0.04198816
231	0xbc8415da	-0.0161237
232	0xbe1ac73a	-0.15115061
233	0x381f7968	3.8021622e-05
234	0xbd474aa2	-0.04865516
235	0x3d84e9fa	0.0648994
236	0x3dc62a77	0.09676068
237	0x3e4153f4	0.18879682
238	0x3d06df70	0.03292793
239	0x3d17a028	0.03701797
240	0xbd5b2732	-0.053504176
241	0x3cc6eb97	0.02428226
242	0x3d344328	0.044009358
243	0x3d56138f	0.052264746
244	0x3db767b0	0.08955324
245	0x3df0f44b	0.11765345
246	0x3e11c256	0.1423429
247	0xbd8bf624	-0.06834057
248	0x3d3cfb70	0.046138227
249	0xbc28c4d8	-0.010300837
250	0xbc430b4e	-0.011904551
251	0x3b4fce5b	0.003170869
252	0x3b16e737	0.0023025998
253	0xbe4420dc	-0.1915316
254	0x3d93561b	0.07194158
255	0x3da9462a	0.08265336

net.4.weight f4 [2, 256]
0	0x3f38cd0c	0.72187877
1	0x3f17e92b	0.5934016
2	0xbd28ba3e	-0.04119324
3	0x3d0ca292	0.034334727
4	0xbcab9344	-0.020944245
5	0x3d206fc3	0.039169084
6	0xbcc5f8b9	-0.024166452
7	0x3cdd86a5	0.027041743
8	0x3f0bc93a	0.5460392
9	0xbcbbb984	-0.02291561
10	0xbd2d80da	-0.04235921
11	0x3ed6c084	0.41943753
12	0x3ccdafaa	0.025108177
13	0xbf0bb923	-0.5457937
14	0xbee05f1c	-0.43822563
15	0x3ef2b721	0.4740534
16	0xbfcce836	-1.6008365
17	0xbceedd4f	-0.029158263
18	0xbfabd704	-1.3424993
19	0xbc8789ac	-0.01654514
20	0x3d011d30	0.031521976
21	0x3f20a857	0.62756866
22	0xbbe1f884	-0.0068960804
23	0xbcb481ca	-0.022034544
24	0xbd693081	-0.056931023
25	0xbb56af45	-0.0032758277
26	0x3f68bcd0	0.90913105
27	0xbe3cdc03	-0.18443303
28	0x3f3fd362	0.7493192
29	0x3f6fbd40	0.9364815
30	0x3d6fd591	0.058553282
31	0x3fb6eff7	1.4291981
32	0xbc0311cc	-0.007999849
33	0x3ecbf180	0.39832687
34	0xbce31058	-0.027717754
35	0x3ccb73ea	0.024835546
36	0xc018a198	-2.384863
37	0xbe92419e	-0.28565687
38	0x3f4704c2	0.77741635
39	0x3f17fca1	0.59369856
40	0xbd6009c2	-0.054696806
41	0x3cf9f6a5	0.030513117
42	0x3f0f1aeb	0.5590045
43	0x3d231366	0.03981342
44	0xbd1b1508	-0.037861854
45	0x3d3dfec2	0.046385534
46	0x3f2ead5e	0.6823329
47	0x3f08a33b	0.5337407
48	0x3f2acf2e	0.6672238
49	0xbd273fd4	-0.040832356
50	0xc0234936	-2.5513434
51	0x3cb7d52e	0.02244052
52	0x3efe3e17	0.49656746
53	0x3d5091ec	0.050920412
54	0x3eb42904	0.35187542
55	0xbd2ec416	-0.04266747
56	0x3b82ba08	0.003989462
57	0xbbf7cdf6	-0.0075623943
58	0xbd2b394c	-0.04180269
59	0xbf9aa9dc	-1.2083087
60	0x3ce38d59	0.02777736
61	0x3d074d2c	0.03303258
62	0xbcabff99	-0.020995902
63	0xbd42efd2	-0.04759199
64	0x3d374e73	0.04475255
65	0x3d48e40a	0.0490456
66	0x3f15180a	0.58239806
67	0x3edde8d0	0.43341684
68	0xbd1a87d6	-0.0377272
69	0xbd359bfb	-0.044338208
70	0x3ee2e20b	0.44313082
71	0xbf877bdb	-1.0584673
72	0x3af100bc	0.001838706
73	0xc05f5281	-3.4894106
74	0x3f06b151	0.52614313
75	0xbf5b0aa9	-0.8556314
76	0x3f1eb893	0.6200039
77	0x3b08faa4	0.0020901347
78	0x3f148645	0.5801738
79	0xbf0c0dc8	-0.5470853
80	0x3f7f3529	0.9969049
81	0x3f3305dc	0.69930816
82	0x3a932ad4	0.0011227974
83	0xbd2b11b6	-0.041764937
84	0xbb87f33a	-0.004148868
85	0x3effcaa2	0.49959284
86	0xbd6a6efc	-0.05723475
87	0xbffe3e6e	-1.9862802
88	0x3faed33b	1.3658212
89	0xbd718cf4	-0.058972314
90	0x3cd9b115	0.026573697
91	0xbaa41314	-0.0012517893
92	0xbe0f7622	-0.14009908
93	0x3a47574d	0.00076042564
94	0x3f274bb7	0.65349907
95	0xbd079aac	-0.03310649
96	0x3efba47a	0.49148923
97	0xbf12e35b	-0.57378167
98	0xbe84b6b7	-0.2592065
99	0x3ebf080e	0.37310833
100	0x3cb6967f	0.022288559
101	0xbc5766d0	-0.013147071
102	0xbd4a127f	-0.049334045
103	0x3f2b1b85	0.66838866
104	0x3eee30fa	0.4652174
105	0x3f5b5d20	0.8568897
106	0xbb58430a	-0.0032998943
107	0xbd85007a	-0.064942315
108	0x3e945403	0.28970346
109	0x3f360f4d	0.711171
110	0xbfe13092	-1.7592947
111	0xc02c0b57	-2.6881921
112	0x3d10ef79	0.03538463
113	0x3d0df233	0.034654807
114	0x3db93c63	0.09044721
115	0xbcff6b26	-0.031179022
116	0xbb2d1a4b	-0.0026413377
117	0x3f0002bb	0.50004166
118	0xbcf140b1	-0.029449793
119	0xbb3d1b82	-0.0028855507
120	0xbca32298	-0.019913957
121	0x3f01cb4e	0.50700843
122	0x3f24ee69	0.64426285
123	0x3f1c0260	0.60941124
124	0xbd93db25	-0.07219533
125	0x3ebd9eea	0.37035304
126	0xb99c1d00	-0.00029776245
127	0x3f002a55	0.50064594
128	0x3f4030f4	0.75074697
129	0x3f078d8d	0.52950364
130	0xbcbed3c6	-0.02329434
131	0x3f04f6e5	0.5193923
132	0xbcba07d4	-0.02270881
133	0x3efe2414	0.496369
134	0x3d504bd2	0.050853558
135	0x3efd19a6	0.4943363
136	0x3fab4636	1.3380802
137	0x3f31c39f	0.6943912
138	0xbcf723a2	-0.030168358
139	0x3f5b8903	0.8575594
140	0x3f07fd4a	0.53120863
141	0x3f1e956e	0.6194676
142	0x3d3cb2cc	0.04606895
143	0x3faf0a79	1.3675071
144	0xbcc98664	-0.024600215
145	0xbd637c28	-0.055538327
146	0x3f9a0f5a	1.2035935
147	0x3f63c803	0.8897707
148	0x3efce57f	0.49393842
149	0xbd2b9916	-0.04189404
150	0x3f2799d1	0.6546908
151	0x3efa59b5	0.48896566
152	0x3f181a6d	0.5941532
153	0x3f38e161	0.722189
154	0x3ec73d0a	0.38913757
155	0x3fcfc238	1.6231146
156	0x3f3fdbe2	0.7494489
157	0xc04512e6	-3.0792785
158	0x3ca24c4c	0.019811772
159	0x3ecc3dbc	0.3989085
160	0x3f039e5d	0.5141352
161	0x3b048354	0.002021988
162	0xbd68f883	-0.056877624
163	0xc08529e7	-4.161365
164	0x3ed4590d	0.4147419
165	0xbd499074	-0.049210027
166	0x3f739cb4	0.95160985
167	0x3c82d028	0.015968397
168	0x3f20581c	0.62634444
169	0xbce3d617	-0.027812047
170	0xbb4242a0	-0.0029641762
171	0x3f8a05d0	1.0783024
172	0xbc1879e2	-0.009306403
173	0xbd590cb7	-0.05299064
174	0x3f5b1023	0.855715
175	0xbf09a056	-0.5376028
176	0xbc95cb40	-0.018285394
177	0xbffef479	-1.9918357
178	0x3f9177ff	1.1364745
179	0x3e83cf74	0.25744212
180	0x3b563ade	0.0032688896
181	0x3ef8805d	0.48535433
182	0xc049afc7	-3.1513536
183	0x3f1d0802	0.61340344
184	0x3f31bce8	0.69428873
185	0x3f115b96	0.56780374
186	0xbc9d9f36	-0.019240957
187	0x3f1a6d93	0.60323447
188	0x3f41d620	0.75717354
189	0x3f271c62	0.65277684
190	0x3f5ba443	0.8579752
191	0x3be3a211	0.00694681
192	0xbd06dc21	-0.032924775
193	0x3edab43e	0.4271564
194	0xbab869d5	-0.0014069626
195	0xbbd561d6	-0.006511907
196	0x3f138ff1	0.5764151
197	0x3f10e62d	0.5660122
198	0x3f30ac1a	0.69012606
199	0xbf13c737	-0.5772585
200	0xbeb68fac	-0.35656488
201	0x3c14c24a	0.009079525
202	0xbd81c62f	-0.06336629
203	0x3d06c77e	0.032905094
204	0x3cafc2be	0.021455165
205	0x3f3ee218	0.7456374
206	0x3ebebc9b	0.3725327
207	0x3b97950e	0.004625923
208	0xbcbcbbdf	-0.023038803
209	0x3f1d1d09	0.6137243
210	0x3f2dbbfb	0.6786496
211	0x3c553fae	0.013015671
212	0xbdf707ba	-0.120620206
213	0x3f306f39	0.6891971
214	0x3cb1baa6	0.021695446
215	0xbc1ce419	-0.009575867
216	0xbcb09bb7	-0.021558626
217	0xbc86ed29	-0.016470509
218	0xbca14ff4	-0.019691445
219	0x3f3c9673	0.7366707
220	0x3f00176f	0.50035757
221	0x3ef16a18	0.47151256
222	0xbcb82e1b	-0.022482922
223	0x3fcd16a2	1.6022532
224	0x3f3d3b90	0.7391901
225	0xbbf91742	-0.0076016495
226	0x3f013767	0.5047516
227	0x3f7e03c6	0.9922451
228	0x3f00ff9d	0.50390035
229	0xbc45075a	-0.0120256785
230	0xbcece120	-0.028915942
231	0xc02a665e	-2.662498
232	0x3f1daa28	0.6158776
233	0xbc669305	-0.014073138
234	0xbd191622	-0.037374623
235	0x3f4c23b5	0.79741985
236	0x3f0adef2	0.5424644
237	0x3f1f560b	0.62240666
238	0xbd3242b6	-0.04352065
239	0xbd551f35	-0.052031714
240	0x3d22f592	0.039784975
241	0xbf8d8ed8	-1.1059217
242	0xbd57e7d5	-0.052711327
243	0x3ec8d2f6	0.3922345
244	0x3f0d590b	0.55213994
245	0x3ef8978e	0.48553127
246	0x3f7eb925	0.9950126
247	0xbd84e29d	-0.064885356
248	0xbcf865a3	-0.030321902
249	0xbd5cb56d	-0.05388396
250	0xbd244d90	-0.040113032
251	0x3c941149	0.018074648
252	0xbbc66c12	-0.0060553635
253	0xbf4eeefa	-0.808334
254	0x3f260bfb	0.6486203
255	0x3f482810	0.7818613

net.4.bias f4 [2]
0	0x3dcc6ed2	0.09982075
1	0x3daae85e	0.08345102
