cartpole_best_model.pth (torch, 274240 bytes, 6 tensors)

net.0.weight f4 [256, 5]
00000000: d6bc 45be 86f6 6bbe 2685 973e 6906 eb3e
00000010: 4996 6abe e75c 473e 187b 81be 6d2d 97be
00000020: 9bfb 1ebd 8ac0 d5bd a37f af3e 4939 823e
00000030: 9992 0cbd d8a8 83be 1496 0dbe a3c2 2bbf
00000040: 8fc6 10bf 5e66 c1be 85fd be3e 555b 9dbe
00000050: 0a23 3c3e e31f ccbc 4f24 0ebf 1a0b e1be
00000060: e5af c03e 5aeb 1d3e 54f8 703e 4e29 243f
00000070: 3068 7bbe f423 46be e72f 09bf 665e 9cbd
00000080: 5bb0 a23e 43d7 f33d 44f1 da3d 6a6d 5b3e
00000090: 8d31 643e c3b9 ac3e ef71 1b3e 59a6 d83a
000000a0: 40a6 e43e b0d4 e33e b9f1 5b3f a92f b03e
000000b0: d503 23be 05c3 bc3e 55b2 cd3e 4c47 68be
000000c0: aaa3 7fbe 601f f2bc 6171 32be 922b 90be
000000d0: beb3 0cbf 8426 dfbe 03ac a1be 49bf 4abe
000000e0: 3134 d33e 111f 5a3f 900c 1d3d ee57 e0bd
000000f0: 6eab 093f 9e86 47bd 8be1 05bf ba3c 923d
00000100: a0ab 89be a746 d03e 78d5 323e 2d08 073f
00000110: 0fb2 3dbc e74b 6fbd f862 993e 7eb0 053f
00000120: be18 383e 3a90 c9bd 12e2 e73a 1382 18bf
00000130: 9453 8d3e c0cd 963e fac0 b2be 3485 8cbe
00000140: 7ff0 9c3d fdac 123e d1d8 5c3e f336 85be
00000150: 1527 b7be 5a10 aa3e 30cf a1be ca46 123e
00000160: 781a c7bd 2dc7 a03e 3aa9 083f 3edc 4a3c
00000170: bfff 0e3f 06de a73e 7517 2c3d 007e 55bd
00000180: 1a30 1c3d 533b 63bf 4c8e d9be a28e 383e
00000190: 57b2 20be 1c23 f93d 045a 29bf d1d5 d0bd
000001a0: a535 e93c a397 cdbe df3d b13e 12df f7bd
000001b0: 8866 d83b 368d 483e 4d32 cb3e 5c5b 473d
000001c0: 09c4 e83d 6d56 e23c b26a 913e 561b bd3e
000001d0: 59f7 79be c592 9bbe 627b 1a3d 329c 08bf
000001e0: eb3b dabe 07b1 f8be 4d1e 5dbe 49de 843b
000001f0: 8ca6 193e e8e9 e93e a876 db3d ff48 11bf
00000200: 9f83 5a3e 6d60 b33c e6a7 e0be a252 2bbe
00000210: ba7e 3d3f b87b f33e 66af ffbc f228 d2be
00000220: db1c f73e 6c1d a13e 6dda f53b 1440 c4be
00000230: f760 653e 9d7e 2e3e 11d0 a03d 83ae 4dbe
00000240: c2ae 05be 5972 13be fc6e f2bd ed78 10bf
00000250: a1c0 5cbe 1142 bb3c 532c c63e c337 183f
00000260: 7b0c d33e 8497 c93d 2f7f 22be 49f4 743f
00000270: b61f 273e b272 3fbf 10b1 62be e3ad 18be
00000280: c440 033f 498c 193e e38b 43bf 0135 a3be
00000290: 9ba4 da3d a533 f43e 7f92 483e 8f1c 1f3f
000002a0: 5558 7abe 3aad fbbd 6180 82bd f67b bc3e
000002b0: 6834 e73e e963 a33d 7fff 8cbe c7dd 473d
000002c0: 2d29 b6ba ec32 023f e983 50be dc58 413e
000002d0: 28d3 29bd ae20 10bf a8b2 5fbd 1189 bd3e
000002e0: f648 4e3d 929e 94be 9869 123f 3784 a93e
000002f0: 18e6 953e 8c5f 2fbc 4460 c6bd ca58 af3e
00000300: c037 4e3f e03f 1f3f 2ae9 6a3d ecb9 c7be
00000310: 8b8b 593e f2a4 983e 6781 8bbe 3e21 d2be
00000320: 750c ecbe 4d2c d03e 3c1c 413f efd8 a7be
00000330: b80f 36bd 305f 23bd 3872 e83d 8d17 ba3d
00000340: b5b1 7bbe 797a a8be 0d66 31be 62f2 2c3f
00000350: 9960 893e 7788 01bf f78a ab3d b1f0 55bc
00000360: f344 be3d b742 133f 22e8 84bd 8284 cabd
00000370: 2eb3 843f 028e 14bf c732 edbe 8eb3 0fbf
00000380: 85a8 7cbc 3937 923e d0b2 023f cb86 f73e
00000390: 777a f63e b62b 523e 4930 c6be 3c92 0f3e
000003a0: 2357 cfbe 6716 15bd 1c91 193d ef6b d6be
000003b0: 7644 613e d72d 083f cd05 d5be 8ad7 98bd
000003c0: eb1b 8ebe b6d5 1cbe 0345 723f 7561 8d3e
000003d0: 3167 b9bc 9cf4 0cbd 8565 9cbe 4c03 fcbd
000003e0: d935 df3e 275a a13d b304 7c3e 6c2d 083f
000003f0: 0b31 d4be 435b d13e aa1f 85be 392f e6be
-0.19310316 -0.2304326 0.29593772 0.45903328 -0.22908892 0.19469033 -0.25289226 -0.29526845
-0.03881417 -0.104371145 0.34277067 0.2543433 -0.034319494 -0.25714755 -0.13826782 -0.6709387
-0.56552976 -0.37773412 0.37302795 -0.30733743 0.18372741 -0.024917549 -0.5552415 -0.43953782
0.37634197 0.15421811 0.2353223 0.64125526 -0.24551463 -0.19349653 -0.5358872 -0.076351926
0.31775174 0.11906292 0.10690549 0.21428457 0.22284527 0.33735475 0.15180181 0.0016529068
0.4465809 0.44498205 0.85915715 0.34411362 -0.1591943 0.36867538 0.4017512 -0.22683448
-0.24964777 -0.029555976 -0.17426063 -0.28158242 -0.54961765 -0.43584073 -0.31576547 -0.19799532
0.41250756 0.85203654 0.03834206 -0.10954271 0.53777206 -0.048712365 -0.52297276 0.07140489
-0.26888752 0.40678903 0.17464244 0.5274685 -0.011578097 -0.058421995 0.2995832 0.5222243
0.17978188 -0.09841962 0.0017691276 -0.5957348 0.27602828 0.2945385 -0.34912854 -0.27445376
0.076630585 0.14323802 0.21567084 -0.26018485 -0.35772005 0.332156 -0.31603384 0.14284816
-0.097218454 0.3140196 0.5338322 0.012381611 0.5585899 0.32786578 0.042014558 -0.052122116
0.03813181 -0.88762397 -0.42491376 0.1802316 -0.15693031 0.121649 -0.6615298 -0.10197032
0.028467963 -0.40154752 0.34617516 -0.12103094 0.0066040196 0.19585118 0.39686814 0.04867111
0.11365516 0.027629102 0.28401715 0.36934918 -0.24410762 -0.30385414 0.037715323 -0.53363335
-0.4262384 -0.4857256 -0.2159359 0.004054819 0.15004939 0.4568627 0.10715991 -0.5675201
0.21339272 0.021896565 -0.43878096 -0.1673074 0.74021494 0.47555327 -0.031211566 -0.41046864
0.48264202 0.3146776 0.007502845 -0.38330138 0.2240027 0.17040487 0.078521855 -0.20086102
-0.13054946 -0.14399089 -0.11837575 -0.5643452 -0.21557857 0.022858651 0.38705692 0.59460086
0.4122046 0.098433524 -0.15868829 0.9568525 0.1632069 -0.74784386 -0.22137856 -0.14910083
0.512707 0.14994921 -0.76385325 -0.31876376 0.10675927 0.47695652 0.19587134 0.6215295
-0.24447758 -0.122889 -0.063721426 0.36813325 0.4515717 0.07978041 -0.27538678 0.048795488
-0.0013897769 0.5085895 -0.2036282 0.18881553 -0.04146114 -0.56299865 -0.05461374 0.37018636
0.05036255 -0.2902723 0.57192373 0.33108684 0.2927711 -0.0107039325 -0.0968633 0.34247428
0.8055382 0.6220684 0.05735127 -0.39009035 0.21244638 0.29813343 -0.27247164 -0.41040987
-0.46103254 0.406588 0.7543371 -0.32782695 -0.044448584 -0.0398857 0.113499105 0.09086523
-0.24579509 -0.3290594 -0.17324086 0.67557347 0.2683151 -0.50598854 0.08376115 -0.013057874
0.09290495 0.57523674 -0.06489588 -0.09888555 1.0367181 -0.58029187 -0.46327803 -0.56133354
-0.015421038 0.28557757 0.51054096 0.48345026 0.48140308 0.20524487 -0.38708714 0.14020628
-0.40496168 -0.036398318 0.037491903 -0.41879222 0.21998772 0.53194946 -0.41605988 -0.07462986
-0.27755675 -0.15315899 0.94636554 0.27613416 -0.022632213 -0.034412965 -0.30546203 -0.12305316
0.4359577 0.07878523 0.24611168 0.5319431 -0.41443667 0.4088994 -0.2600072 -0.44957903

net.0.bias f4 [256]
00000000: 9c62 c23e eae0 bcbe 5ea1 ee3d eb15 8b3e
00000010: e784 15bf 027d 9f3e c45f c53e 214c ccbe
00000020: 1d66 3abe 08b0 c13e 8d47 c9be 9c79 143e
00000030: 6d3a c8be de15 ee3e 159d a43d 086d ae3d
00000040: 51c2 3ebe 175f 4739 14ab 98be 480b 99be
00000050: f9a3 553e fe3d babe d785 bc3e eaf5 ac3d
00000060: 2a55 a4be 7f74 0e3e aeca 96be 77a0 803d
00000070: b6a2 ba3e f57e 8c3e 4bbd 613e 6544 87be
00000080: 5766 80be b9be 8c3e 10f7 1bbe 4366 653e
00000090: 730c 133e 14c5 6d3d 583f bdbe 6470 a3be
000000a0: 8683 d43d f38a 0c3d 413d d2bd 0057 013f
000000b0: 3f00 99be 0d94 80be 218b 343e 9f0c 7fbe
000000c0: cbc4 14be c80b 033e 1d4c 943e 9934 fabd
000000d0: 0d41 003f 8899 0dbf dd6f 2c3e ff88 113e
000000e0: 74b7 9cbe d470 c9be 77dd 193e 9341 933c
000000f0: 6fc0 ca3e a740 33be 1a46 9bbe 0b8b b0be
00000100: c17e fb3d 2df3 82be df80 3fbe 920a e53e
00000110: 70aa 9abe 4480 d0be b8bd 9abe a88a a93e
00000120: f706 353e e284 ac3e 8aeb a2be 6f54 f23e
00000130: 0871 93be edee c5be f374 a4be b0f4 ecbe
00000140: 1283 98bd e007 ccbe b12e f1be 2dea 453e
00000150: 017e 933e 0683 91be 2e87 57be 1fb8 36be
00000160: bcac a9be e099 debe 1c6b a3be 5865 1bbe
00000170: e71d 54be 41be c3be 6e5f a63e 1889 8b3e
00000180: 9bdb 813e bf4b ea3b c331 8fbe 896f ebbe
00000190: 1ee4 0abf a1ef f73e 8f41 a3bd 1b78 97be
000001a0: af3d 9bbe 7943 12be 1932 f43e ef00 fbbd
000001b0: 7d89 b8be b66c 82be 4cc7 233e 11ad c9be
000001c0: 8e0a d5bd 8032 383d 7af0 c4be 4f8e 413e
000001d0: faca e93e 8784 82be d542 913e bcaa 05be
000001e0: b8a7 d13d b647 00bf f2d2 a1be fc03 90be
000001f0: 2d2a 473e 5f51 403e 0c85 23be a0f7 f73e
00000200: 7405 f73e b71f bc3e 8037 f73d ec75 55be
00000210: d07c e6be 5b95 99bd 7412 e8bd 9994 ddbe
00000220: cd58 d3bd 8112 88bd 21a4 bfbe f64c fb3e
00000230: 496b 4fbd 91a8 453e 5ea7 febd 13dc c9be
00000240: 764e a83d 6f7d d2be 4559 11be 8dda ee3e
00000250: 50df b83d 3f32 bf3e 67a0 afbd 071f 82bd
00000260: 0fd2 10bb 162c a63e a308 b53d 7da1 d03d
00000270: b264 24bb f5e6 b13e b8fd d83e 263d 853e
00000280: 80b9 023e d565 a7be 2405 273d a2b8 a1be
00000290: 3b55 a8be ef73 e53e ee9c c83e 75e8 b63d
000002a0: 4bbb 70bd 4edd da3d b787 aabc c580 e73e
000002b0: bf67 18bf c313 2c3e 8ef8 c4bc 40f7 53be
000002c0: dd01 98be 9b76 c9be 8db6 35be 6bed 593e
000002d0: 85d4 113e c3da 87be cde9 95be 1b0c 7ebe
000002e0: 6720 d43e ea7c a13e 097c 6cbd 0311 f6bd
000002f0: 8029 ef3e 4796 e43e 8fcd 8cbe 1737 01bf
00000300: 0911 e7bd 46d0 813d d567 573e a80a bfbd
00000310: 0c92 87be 1588 b03e cd92 a43e 50f3 f2be
00000320: 7272 86be e899 2d3e 24a4 6bbe d4a0 3e3e
00000330: feb1 ad3e 550b a2be c718 61be cb47 8fbd
00000340: fb44 e3be 0da3 0ebd fa19 aa3e 5588 e33e
00000350: 97bf 26be d841 e83c b842 fa3d b356 d73d
00000360: 3a1a 7ebe 326f 9bbe 2cf6 66bd da11 a9bd
00000370: 2563 4f3e f4e6 7cbe 8afa a7be 6dd4 f93e
00000380: e984 12be 9f82 b53e 79d6 aebd b192 5b3e
00000390: 6b29 643e 7f44 033f 4f4a 8fbe 7acd fdbe
000003a0: 01cb e13e 6e61 76be 57e1 02bf adb4 db3e
000003b0: b0ce abbe 8a68 90be d450 f63e 5436 b7be
000003c0: 94ce 06bf 7813 ca3e 4b4d 513e be4a 75bd
000003d0: 3fb5 db3e eba3 fdbe 8f6a c23e e249 b4be
000003e0: 57cd 04be 9fc3 82be 2034 64bd 1717 843e
000003f0: a187 19bd ca35 bdbd 9958 ad3e 4742 ddbd
0.37965858 -0.36890346 0.11651872 0.2716516 -0.5840592 0.3115006 0.38549626 -0.39901832
-0.18203016 0.37829614 -0.393124 0.14499515 -0.39107075 0.46501058 0.080377735 0.0851689
-0.18628813 0.00019013543 -0.29818022 -0.2989142 0.20863332 -0.3637542 0.36820862 0.08445342
-0.32096225 0.13911627 -0.29451507 0.06280606 0.36452264 0.2744061 0.22044866 -0.26419368
-0.2507808 0.2748926 -0.15230966 0.22402291 0.14360218 0.058049276 -0.3696239 -0.31921685
0.103766486 0.0343122 -0.102655895 0.50523376 -0.29883 -0.25112954 0.17631198 -0.24907158
-0.14528196 0.12797463 0.2896432 -0.122170635 0.5009926 -0.55312395 0.16839547 0.14212416
-0.30608714 -0.39343894 0.15025888 0.017975604 0.3959994 -0.17505132 -0.3032692 -0.3448108
0.12280036 -0.25576153 -0.18701504 0.44734627 -0.30208158 -0.4072286 -0.3022287 0.331136
0.17678438 0.33695132 -0.31820327 0.47330043 -0.28797174 -0.38658848 -0.32120475 -0.46280432
-0.07446875 -0.39849758 -0.47105935 0.19327612 0.2880707 -0.28420275 -0.2104766 -0.17843674
-0.33139598 -0.43476772 -0.31917655 -0.15175378 -0.20714532 -0.3823109 0.32494682 0.27253032
0.25362858 0.007150143 -0.27967653 -0.45983532 -0.5425433 0.4842501 -0.07971489 -0.2958382
-0.30320498 -0.14283551 0.4769447 -0.122560374 -0.36042395 -0.25473565 0.15993994 -0.39389852
-0.10402404 0.044970036 -0.3846472 0.18901943 0.4566267 -0.25491735 0.283713 -0.13053411
0.10237068 -0.5010942 -0.3160625 -0.2812804 0.19449683 0.1878104 -0.15968722 0.4843111
0.48246348 0.36742947 0.12071133 -0.20845765 -0.450171 -0.074991904 -0.11331645 -0.43277434
-0.10319672 -0.06644154 -0.37429908 0.49082154 -0.050639424 0.19302584 -0.124342665 -0.39425716
0.0821809 -0.41111323 -0.1419421 0.46651116 0.090269685 0.37343022 -0.08575516 -0.06353574
-0.002209786 0.3245551 0.08839538 0.101870514 -0.0025084433 0.3474652 0.42381072 0.26023215
0.12766075 -0.3269488 0.040776387 -0.31586176 -0.32877526 0.44815013 0.39182228 0.089310564
-0.058772366 0.10686742 -0.020816667 0.4521543 -0.59533304 0.16804413 -0.024044301 -0.20699787
-0.29688922 -0.393483 -0.17745419 0.21281974 0.14241226 -0.2653409 -0.29279938 -0.24809305
0.4143097 0.31540614 -0.057735477 -0.120149635 0.4671135 0.44645903 -0.2750058 -0.50474685
-0.11282546 0.06338553 0.21035703 -0.093282044 -0.26478612 0.34478822 0.3214325 -0.47451258
-0.2625919 0.16953242 -0.23011833 0.18616039 0.3392486 -0.3164927 -0.21982108 -0.06996115
-0.44388565 -0.034823466 0.33222944 0.4443995 -0.16284023 0.02835171 0.12219757 0.105145834
-0.24814692 -0.30358273 -0.05638711 -0.08255358 0.20252664 -0.24697477 -0.32808334 0.4879488
-0.14308514 0.35451218 -0.08537001 0.21442677 0.22281425 0.5127639 -0.2798638 -0.4957083
0.44100192 -0.24060604 -0.5112509 0.42911282 -0.33556128 -0.28204757 0.48108542 -0.35783637
-0.52658963 0.39467978 0.20439641 -0.059885733 0.42911717 -0.49539122 0.37971923 -0.35212618
-0.12968956 -0.25539872 -0.055713773 0.25798866 -0.03748286 -0.09238775 0.33856657 -0.10803657

net.2.weight f4 [256, 256]
00000000: e9a2 933d f317 c13a 4e9a 383b 5009 a93d
00000010: 810c 13bd 1d5f 7d3c 8e5b af3d 30be af3b
00000020: 67fc 38be 4026 423b c8c4 64be 48f1 ebbd
00000030: f953 033e b5a6 903b 69ae d23d f832 e43c
00000040: ec3b 6abd b8e5 613d d8a8 d3bd a962 8cbd
00000050: f4f6 f23c 598b 02bd 019c 8b3c 3c89 d23c
00000060: 8b03 a2bc f3a7 d43d ff9e 92bd 6887 babd
00000070: 764f c23d 5608 733c becf b03d d258 2dbe
00000080: 6170 a5bd 75e8 5f3d 3120 f6bd 5560 06bc
00000090: 4901 3b3b 3e5a 96be 4bfb 5fbe ef73 693e
000000a0: 9777 9a3d 9f72 673d a1e2 e5bc 2f11 e73d
000000b0: c24d 31bf c743 09be d802 683d 1e57 133c
000000c0: f834 34be a4c1 723c 60c5 6f3d e785 ad3c
000000d0: 2924 6d3d f56c 0cbe a1eb 96bc 088f 063d
000000e0: 5ef3 90bd eca9 353c 5a3b cc3c 622a 29bc
000000f0: c014 803d 0dd4 85bd fb01 c83a d17b 6cbd
00000100: bd4b 2e3d 3dae dabd 66e8 1cbe 0da5 98b9
00000110: 0dc4 1dbf a63d 2fbe 50f8 483c fbc4 a93d
00000120: 0856 a8bc 2519 0b3c 90f4 0abe a39d 0b3c
00000130: 9cdc 5bbe 6784 443d ae71 883d a4a4 973e
00000140: 6ccf 5dbd 84be a03d a210 8fbd ac17 193d
00000150: 35d3 963d 3791 28be 9178 b8bd 4f71 9f3c
00000160: 7a2a 34be cc4f f73c 169a c3bd ea0a 64bd
00000170: 1375 d4be 799d aa3d 5de7 ae3d 81fb 983d
00000180: d063 243d e508 5e3c 80b0 a6be 03b3 ddbe
00000190: e7fe bcbd b04c 9c3b 647e 30be 4e4d 28bf
000001a0: f790 34be 872b cabe 251e 023d 4cd3 c8be
000001b0: 3a5f 543e 1153 e6bd 64be 07be 4708 cfbd
000001c0: 8ee8 17bd 70fd 88bd 7d27 29bd f9b5 843d
000001d0: ff85 273d f892 7b3b 1009 743d 21e8 f5bb
000001e0: a160 183d 71c9 c4bd 01c6 eb3d 78ab e5bd
000001f0: 29ed de3d d44d 673d 896e f8be 007b 593c
00000200: 95d6 473d 8e2e 4f3c a72c a03c 4fca 4fbe
00000210: 1b1f 033d c93f 0fbe d6a1 47bc 7e69 2a3d
00000220: ba5f 42be 14bf 213d 7eb7 89be 0582 c13d
00000230: 37bf 61bd 19ab 363d ba20 ec3b b111 71bd
00000240: 0fca f73d c6c0 24be 65d9 753d 0087 27bb
00000250: 6283 5fbb 7623 7a3d c066 c3bc 90d8 a33d
00000260: 4010 5ebe 89f5 ed3d 6644 283c a5da 0cbd
00000270: af46 e0bd c948 493d 1f44 3ebc 4d2a be3c
00000280: a58f 663d d0a1 63bd 126f e23d 61ad 303d
00000290: b050 0cbe 8c02 4c3d d696 4d3d c038 5b3d
000002a0: 333b c13c cae8 d23d bf36 843d daef f33d
000002b0: 4851 763c 741a 6dbb 8fd8 81bc 6751 0a3d
000002c0: ec4f d9bd 0106 04bd b1ca 4abd 2651 923d
000002d0: a6b4 163d ee56 a5bd 3901 1e3e 83d9 14be
000002e0: be8a c73d b786 143d e9fe 4fba 47cb 423b
000002f0: f333 333d c557 0e3e 8371 1cbd c4e9 433e
00000300: 5e66 79be 0ef3 8fbd 408d 453d d5e8 a4bd
00000310: 4c57 2bbf ebb0 0b3e 63c4 ba3d ff27 eebc
00000320: 804d debe 2f5b 693d 98d9 b1bc 5cc6 c23d
00000330: 42dc 453c 4752 c5be 1368 f1be fcda 24bd
00000340: f0be eabd eefa 0a3d c07f 71bb 5c7b c93d
00000350: 2f0c 913d 2c3e 533c f981 ab3d 776e 6e3c
00000360: 3cbc aebc c751 213d 90a6 9fbc 4b1f fbbd
00000370: f352 2b3d ce15 11be a7c0 98be 5d5c e53d
00000380: 3140 89bd 0f69 103c 892c 5dbc 54bc 8ebb
00000390: 8707 993d 0fa7 af3d deb6 75be 3c4a 8cbe
000003a0: 0e19 353d 2a8c 943d 4bb3 c1be c65f aabb
000003b0: cf17 a5be b873 dabd 817e 4e3d 7b01 05bd
000003c0: 278a f8bd 18e6 9a3c 6d5c 633c d2a6 af3d
000003d0: 8753 d13d 49a9 68be 029c 4d3c c33d 0fbe
000003e0: 7cff 9abe 34de 17be 6530 c0bd a637 8d3d
000003f0: 4b5d 1ebd a5f0 89be fa4e 6d3d a31a 243e
0.07208807 0.0014731869 0.0028168145 0.08253729 -0.035900597 0.015464571 0.085623845 0.0053632483
-0.18065034 0.002962485 -0.22340691 -0.1152063 0.12825002 0.0044144043 0.10287172 0.027856335
-0.057186052 0.055150717 -0.10334939 -0.068547554 0.029658772 -0.031871174 0.017042162 0.025700204
-0.01977708 0.10383596 -0.07159232 -0.09107858 0.09487812 0.01483353 0.08633374 -0.16928414
-0.08078075 0.054665048 -0.12017859 -0.008201678 0.0028534702 -0.29365724 -0.21873204 0.22798131
0.07542341 0.056505796 -0.028062167 0.112825744 -0.69259274 -0.13404761 0.056643337 0.008992938
-0.17598331 0.014816675 0.05853784 0.021182014 0.057895813 -0.13713439 -0.018422903 0.03285125
-0.070776686 0.011087876 0.024930645 -0.010325046 0.06253958 -0.06534586 0.0015259379 -0.057735268
0.0425527 -0.106777646 -0.15323028 -0.00029114672 -0.61627275 -0.17113361 0.012266234 0.08289524
-0.020548835 0.008489882 -0.13569856 0.00852147 -0.21470875 0.04797783 0.06662308 0.29617798
-0.05415289 0.07848838 -0.06985594 0.03737609 0.07364503 -0.16461645 -0.09007371 0.01946321
-0.17594329 0.030189417 -0.09550874 -0.05567447 -0.4149557 0.08330817 0.08540223 0.074698456
0.04013425 0.013551925 -0.32556534 -0.43300638 -0.09228306 0.004769884 -0.17235714 -0.6574296
-0.17633425 -0.39486334 0.03176703 -0.39223707 0.20739451 -0.112463124 -0.13256222 -0.10109001
-0.037087016 -0.06688964 -0.041297425 0.06480021 0.040899273 0.003838716 0.059578955 -0.0075044786
0.037201528 -0.096087344 0.115123756 -0.11214346 0.108850785 0.056470707 -0.48521832 0.013273954
0.048788626 0.012645377 0.019552542 -0.20292018 0.032012086 -0.13989176 -0.012184581 0.04160451
-0.1898183 0.039488867 -0.26897806 0.094486274 -0.055113997 0.044596765 0.0072060497 -0.058854762
0.120990865 -0.16089162 0.060021777 -0.0025562644 -0.003410541 0.061068974 -0.023852706 0.080002904
-0.21685886 0.11619098 0.010270214 -0.034388203 -0.10950982 0.04914168 -0.011612921 0.02321353
0.056289334 -0.05557424 0.11056341 0.043134097 -0.13702655 0.049807116 0.050192676 0.053520918
0.023587799 0.10298307 0.064557545 0.119109824 0.015034027 -0.0036179097 -0.015850333 0.033769038
-0.10610947 -0.03223229 -0.049509708 0.07144384 0.036793374 -0.08073221 0.15430154 -0.14536099
0.0974326 0.036261287 -0.0007934408 0.0029723214 0.043750715 0.13900669 -0.03819419 0.19132143
-0.24355456 -0.07028781 0.04823041 -0.08052222 -0.6693008 0.13641708 0.09119489 -0.029071806
-0.43418503 0.056971725 -0.021710202 0.0951049 0.012076439 -0.38539335 -0.47149715 -0.040247902
-0.114622 0.03393071 -0.0036849827 0.09837982 0.07082402 0.012893241 0.083744 0.014552704
-0.021329992 0.03938463 -0.019488603 -0.12261828 0.041827153 -0.14168474 -0.29834482 0.111992575
-0.06701697 0.00881411 -0.013499388 -0.0043559466 0.07472139 0.08576786 -0.2399554 -0.27400386
0.044213347 0.07253297 -0.37832102 -0.0051994054 -0.32244727 -0.10666603 0.050413612 -0.032472115
-0.121357255 0.018908545 0.0138770165 0.0857674 0.1022101 -0.22720827 0.012549402 -0.13988404
-0.30273044 -0.14830858 -0.093842305 0.0689538 -0.03866319 -0.2694141 0.057936646 0.16025786

net.2.bias f4 [256]
00000000: d231 9f3c c782 863c f7de a63d 0d39 b03c
00000010: 4f72 463c 57b3 243c d704 2c3d efcb 983c
00000020: 77e2 db3d d2c4 48bc 32aa 5c3d a6d3 9b3d
00000030: 912d 2bbd 54db b03d 3005 86bc 61a0 95bd
00000040: a6a7 8e3b 5d20 7c3d 5a0b 91bd 5fe3 5bbd
00000050: 0913 42bc 8abe a13d d8ba 8a3d 1008 53bc
00000060: 1f0f 483d 000d 8f3d e134 e53d 4041 043d
00000070: b483 003e 57fd 5d3d db10 19bc 54f6 713c
00000080: 9377 f93b 9125 3dbd 65ff 803d b3a7 073d
00000090: 2b4b 873d 0455 bebc 0249 623d d0bf da3d
000000a0: 819e 7fbd 24ff 3c3b 1f24 45bd ba2f 003e
000000b0: 81f2 623d 9b53 28bc d68d 2dbd 0561 7ebb
000000c0: 3513 bc3c 7eeb 813d a7ac 61bd 1ca7 eb3d
000000d0: 8814 29bd c62d 1e3d 8252 303d aa5f 053e
000000e0: cbd9 6d3d 870c e03b 1817 283d ace5 a13d
000000f0: a24d a33d 63c8 973c d863 a93d 060d 6c3d
00000100: 91b0 b23d cb43 aabc 5cab 233d 1595 8d3d
00000110: 1d8c 963d 4e33 763b 038f cabb d651 0b3d
00000120: 06bb d53c cf71 883c c1b0 52bc b98b 10bc
00000130: 3ab1 76bd fc75 b9bc 121e 43bd f62f 213d
00000140: b228 1a3d 9e14 063d 7cca 14be 0de2 973d
00000150: 0861 c43d 80c1 cc3d bdcd 00be 2da9 e83c
00000160: 9f30 12bd 0586 4e3c 2bd6 26bb 7e75 40bc
00000170: cd8b 34bb c8c6 4eba d02e 543d 208c 1ebb
00000180: 2b16 0ebc 912d 1dbd 84ad dc3b 110f 80bd
00000190: c8bc 063e eec8 473c e740 40bd 043a e83c
000001a0: 3d2c ddbc ffe5 c2bc d2b8 013e 2157 523d
000001b0: 6903 0e3b bd3d 543d f63b b33d 5ce4 923b
000001c0: 4a54 26bd 4aa8 54bd 920c 72bd fd47 fc3d
000001d0: 54fe df3c 4317 3cbd 3557 0b3d a705 e83d
000001e0: bdb7 f5bc 0d0b b03d 0905 813c fd5a 14be
000001f0: 8eaf 4abd de13 043d 3ec7 5abd 7ad3 81bd
00000200: 347e 85bd 5f13 82bd 0c70 afbc c560 fe3d
00000210: 05e3 993c b9cb e93c 660e 433d cb3c 93bd
00000220: 4745 8a3d 2f87 ed3d a563 7ebd 0cb9 f8bc
00000230: 4ea5 f23d 7419 c03b de8f 89bd e532 15bd
00000240: 353e 15bd 62d3 493d 75d6 2ebd 4897 4d3d
00000250: 04de 4cbc 57e9 cf3c f6ce 3b3d c089 623d
00000260: 18e6 e7bb 6e1a 903c 6f63 c13b 6794 29bc
00000270: 555b a53d cfe1 aabd 1a4b 5e3c ebc3 e73c
00000280: 61c6 953d 836e cc3c 4e8b 77bb a65c 613d
00000290: c378 c43d 076f eebd d425 e93d e076 8a3d
000002a0: 83d2 a23d 9329 f73c 55e8 673d 2522 0e3c
000002b0: 6ec4 dc3c acc1 da3d 949d b63d 4055 5f3c
000002c0: e4b1 3c3d 7b8f 7c3d 5bf7 533d 85a7 d13c
000002d0: 255f 1b3c 2459 063c cb31 003e e0fe a93d
000002e0: 2ef3 383d 303c 7d3c 6851 c03d da00 6bbc
000002f0: 4375 203d af77 2abc 3177 e73c 33dc 79bd
00000300: a67a 923c 924d 7d3d ad35 743c b495 d0bc
00000310: 1a04 d03d 185b 0a3d 6679 803d 5bcf eb3d
00000320: 4b81 9bbc 37cf ff3c baeb e03c 4643 163e
00000330: 27ff e63c d39a 6b3c e81c c33c 60b7 e7bc
00000340: 5904 753d 9cd7 753d b525 153d 49f8 2c3e
00000350: 54eb fb3d 2df6 373c 81ce 9c3d 9e89 503c
00000360: 8435 8c3c d6fd 57bd cc5b 413b dd31 abbc
00000370: 3b8e 033e 91a2 c63c c994 ae3c 1b9f 263d
00000380: 5302 86bc c529 6dbd 351a b3bd b235 b43d
00000390: 441d a7bd 0244 3c3d 440e f13d 9302 0cbd
000003a0: a02d 823d 6776 32bc d5ac ae3d fc56 fe3c
000003b0: 1ca6 2f3d 717d 1abd 19e9 9f3d 100e 4fbd
000003c0: 0c53 abbc 6728 1f3c 9aaa 54bd a23c d33d
000003d0: 2828 713d f126 013d 5149 8d3d b269 99bd
000003e0: c9f3 b8bc 3acf a63c 3a42 c73d f5a6 433d
000003f0: f017 d23d 63a3 003e 9981 833d b7ba 88bd
0.019432936 0.016419781 0.08147996 0.021511579 0.012112214 0.010052524 0.041996803 0.01865193
0.10736554 -0.012253957 0.05387325 0.07608728 -0.041791502 0.086355835 -0.016359895 -0.073059805
0.0043534813 0.0615543 -0.07082243 -0.053683635 -0.011845359 0.078976706 0.06773919 -0.01288034
0.048842546 0.069849014 0.111917265 0.03228879 0.12550241 0.05419668 -0.009342398 0.014768202
0.0076131313 -0.046178404 0.06298713 0.033118915 0.06606134 -0.023233898 0.055245407 0.106811166
-0.06240702 0.00288386 -0.04813015 0.12518206 0.05540705 -0.010273839 -0.042371593 -0.0038815152
0.022958377 0.06343745 -0.055096295 0.11506483 -0.041279346 0.03861787 0.043047436 0.13024774
0.05806903 0.006837431 0.04103765 0.079051346 0.07973792 0.018528169 0.08270997 0.057629608
0.087250836 -0.02078428 0.039958343 0.06913201 0.07350943 0.00375672 -0.006181599 0.03401359
0.026090156 0.01665583 -0.012859524 -0.008822375 -0.06022761 -0.022639267 -0.0476361 0.03935238
0.037636466 0.032734506 -0.14530367 0.07416163 0.0958882 0.09997845 -0.12578483 0.028400982
-0.0356909 0.012605195 -0.0025457244 -0.011746762 -0.0027549148 -0.0007887897 0.051802456 -0.0024192408
-0.008672277 -0.038373534 0.006734552 -0.06252874 0.13157952 0.012193901 -0.046936896 0.028347977
-0.026998634 -0.023791311 0.1266816 0.051352624 0.0021669513 0.05181669 0.08751671 0.004482789
-0.040607728 -0.051918305 -0.05909402 0.12318418 0.027342953 -0.04592062 0.034018714 0.11329203
-0.02999484 0.08595858 0.015749471 -0.14487834 -0.04948383 0.03224551 -0.05341267 -0.06339164
-0.06518212 -0.06351351 -0.021415733 0.12420801 0.01878501 0.028539525 0.047621153 -0.0718933
0.06751495 0.1159805 -0.062106747 -0.030361675 0.118479356 0.0058624092 -0.067168936 -0.03642549
-0.03643628 0.049273856 -0.04268499 0.0501931 -0.0125041045 0.02537982 0.04585167 0.05530715
-0.00707699 0.017590728 0.005901746 -0.010350323 0.08074061 -0.08343851 0.01356771 0.028291663
0.073132284 0.02495504 -0.003777224 0.055019997 0.09593346 -0.116422705 0.11384168 0.06760955
0.07950308 0.030171191 0.056618053 0.008675133 0.026949134 0.10681471 0.089167744 0.013631165
0.046068087 0.06166027 0.05174957 0.025592575 0.009483133 0.008199964 0.12518995 0.08300567
0.04515379 0.015456244 0.09390527 -0.014343465 0.03917433 -0.010404511 0.028255077 -0.061001014
0.017880749 0.061841555 0.014905375 -0.025462009 0.10157032 0.03377828 0.06273155 0.11514159
-0.01898255 0.031226737 0.027456153 0.146741 0.028197838 0.014380175 0.023817495 -0.028285682
0.0598186 0.060020074 0.036412913 0.16891588 0.12300745 0.0112281265 0.07656575 0.012728123
0.017115362 -0.05273231 0.0029504178 -0.0208978 0.12847225 0.02424744 0.02131118 0.04067908
-0.01635853 -0.057901163 -0.08745233 0.08799304 -0.08159879 0.045963295 0.11770299 -0.034182142
0.063563585 -0.010892487 0.08529059 0.031047337 0.042883024 -0.037717286 0.07808132 -0.05055052
-0.020913623 0.0097142225 -0.05192051 0.10314299 0.058876187 0.031531278 0.068987496 -0.07490863
-0.022577183 0.020362485 0.097294286 0.047766645 0.10258472 0.12562327 0.06421203 -0.06676238

net.4.weight f4 [2, 256]
00000000: 6155 413e ce29 30bd 4de5 0f3e 6776 2abf
00000010: 8ccb 663e 0ea6 303e 1394 9dbd a8e4 e7bc
00000020: 69f8 873e 2404 1bbd eee9 31bc 3f45 b0be
00000030: ce16 00be 7fae a2be 00fd a93b 4e58 80bb
00000040: 91b8 1f3e ae6c a13d e2f6 08bd f923 85bd
00000050: e5cb 95bd 78a6 193e fbd7 463d d6e7 13bd
00000060: 7248 143e 41f4 473e f1d3 5f3e fafb dcbb
00000070: 3382 b83d 3bb1 943e 0801 0abd 4b6c 943c
00000080: f173 90bd 5a1b 08bf 84f0 9bbe c0d7 a53e
00000090: ba04 bc3d 9028 29bd 1050 f43b a2de 5e3e
000000a0: 4635 5ebd f87d cdbc e25b ca3b a1b8 313e
000000b0: 9731 813d f1c9 71be afc0 c6bd e3c9 8abb
000000c0: 34ba febc 271e 1e3e 9580 2f3c 47e2 2f3e
000000d0: be52 4bbd 9338 cabd 8e89 843a 85e5 cd3d
000000e0: f339 0d3e 489d 09be c12e cfbc 13e1 963e
000000f0: 9a7e 193d 61f1 873d 0e04 423e 75e4 c23d
00000100: 25b3 e43d 2714 17bd e02f bb3d 681b 7bbc
00000110: 1232 803e b31e d4ba 8a70 43bd 4d89 08bd
00000120: 9036 17bd e92f 663e 4bd9 82bd ab1d 2abd
00000130: e9da ecbc 4556 4e3d 2e39 d7bc 6c44 afbc
00000140: f6bd 94bc 08bd 24bb 7ece 59be c5fd 3a3e
00000150: 8922 2a3d 0450 4c3e 4ecc 09be 0ebd 513e
00000160: fa0a 2d3c 0f16 4c3e 4747 3ebf fb5a 8b3d
00000170: 3723 d2bc 9cd1 35bc 004d 793c bea3 213d
00000180: 129f 68bd f2a1 34bf 5d09 cc3d 9c46 153c
00000190: 20df 7a3e 538f da3d e7cc febb 5cfa 883e
000001a0: 69bd 0ebc 20b8 37bd 9592 853e 9baf 57bd
000001b0: 66c0 81bc ab04 bbbc e732 3b3e e052 92bc
000001c0: c44c e03b 6264 5dbd 0b77 63bb b7aa 543e
000001d0: 2778 103e 6b32 00bd da93 f83c 70b4 143e
000001e0: ca58 353e 85cf b73c 7879 69bd b4dd a9bd
000001f0: 1d85 6f3e d8de d0bc fe73 23bd c7e0 193c
00000200: d4f1 8fbd 22c0 12bc 7cd7 3cbd 374a 393e
00000210: c874 09bc f852 8a3e ec75 c43d fba5 c03b
00000220: 9a00 6d3b 8ff2 083e f4b3 efbb 4ddd 173c
00000230: 675b de3d f10a 45bd 9632 143d b723 0fbc
00000240: 9ad7 953a 6e4f 1c3d 27fb 0bbf 82c5 833d
00000250: deb2 83bd da17 3b3e b588 853d 7c72 d83d
00000260: 66cd 77bc 9516 243b b884 25bc 141e 25bc
00000270: c564 133e 42da 63bd 2f0b 073e 2beb 02bd
00000280: 4b83 733d 682d 393c f7c3 63bd 71f2 37bd
00000290: 046e 613e b596 68be 273a 0fbb bcfc 273e
000002a0: fb63 0c3e 3f12 1f3d 0e31 353e 1dfe 903e
000002b0: 63c2 463d 486e 283e 1ded 193c ec65 11bd
000002c0: 039b 83bb b57b a63a edc5 253e 343c 9ebe
000002d0: ed57 283e 163e 5cbb 3824 c83d 4f4a 1d3e
000002e0: 4a14 31bf c65c 07bd 2a77 df3d 7261 20bd
000002f0: 6a1a ea3d ade7 4abd 16ac 523e 4976 46bd
00000300: aa15 d73d 8e8e 4c3e 00df 03bc e5e4 433d
00000310: 66f5 b83d 908a 4c3d b5b7 13bc a790 ee3d
00000320: 4f57 49bd 41a8 50bd e828 2dbf 91d0 a0be
00000330: 59d4 dd3c 00e0 0e3c 8296 80bb 72e5 06bd
00000340: 5b2b 493e ec0d 573e cdba 57bd 957e d33d
00000350: f50c a73d 775c 46bc 5d3e 343e 75ce 5cbd
00000360: eff0 07bd e37e c1bd 47b8 0bbd 4bff 18be
00000370: 0590 693e 3466 023d 63fe bcbc 639e f5bc
00000380: 69e2 8fbb 10de ea3c 6d11 c2be e340 4c3e
00000390: 095b 3abd 70fb b53b 1f0a 213e 8552 18bd
000003a0: 2b19 233e f556 7ebe 41d0 003e cf44 bcbc
000003b0: 1e05 66be 48dd a4bc 587f 643e 09bb f63b
000003c0: 4b62 dcbc b408 e63d b60e 953e 2abe 1d3e
000003d0: 482e bf3d 2524 eeba 70d7 3b3e f12f 6bbc
000003e0: c5f2 68bc edc5 3ebd 2135 c43d 688c e0bb
000003f0: 23cf 8a3e a2bf 723e d9f5 333e 84c4 1d3d
0.18880226 -0.043008618 0.14052315 -0.6658692 0.22538584 0.17250845 -0.076942585 -0.028307274
0.2655671 -0.037845746 -0.010858996 -0.3442783 -0.125087 -0.31773755 0.0051876307 -0.0039167767
0.1559775 0.07882057 -0.03343857 -0.06501002 -0.073142804 0.15004909 0.04854582 -0.036109768
0.1448076 0.19526769 0.21858193 -0.006743905 0.090092085 0.29041466 -0.03369239 0.018118044
-0.07053364 -0.53166735 -0.30456936 0.32391167 0.09180589 -0.04129845 0.0074558333 0.21764615
-0.054250024 -0.02508448 0.006175504 0.17355587 0.06308287 -0.23612191 -0.0970472 -0.0042354926
-0.031094648 0.1544119 0.010711809 0.17176162 -0.049639456 -0.09874072 0.0010111795 0.10053543
0.13791637 -0.13438904 -0.025290849 0.29468593 0.037474252 0.06637836 0.18946859 0.09516231
0.111669816 -0.036884453 0.09139991 -0.015326358 0.250382 -0.0016183465 -0.047714747 -0.033334065
-0.03691727 0.22479214 -0.063891016 -0.0415322 -0.028912978 0.05037524 -0.026272383 -0.02139493
-0.018156987 -0.0025137085 -0.21270177 0.18260868 0.04153684 0.19952399 -0.13456842 0.20482275
0.010561699 0.1993029 -0.7432751 0.068044625 -0.025651557 -0.011097338 0.015216112 0.039462797
-0.056792326 -0.7055961 0.099627234 0.009111073 0.24499178 0.10671868 -0.007775891 0.2675351
-0.008712151 -0.04485333 0.26088396 -0.052657705 -0.015838813 -0.022829374 0.18281136 -0.017861784
0.0068450887 -0.05405081 -0.0034708406 0.20768248 0.14108334 -0.031298082 0.030343939 0.14521956
0.17709652 0.02243782 -0.057000607 -0.0829424 0.23390622 -0.025496885 -0.03990554 0.00939197
-0.07028547 -0.008956941 -0.04610394 0.18094717 -0.008389659 0.27016425 0.09592804 0.0058791614
0.0036163689 0.13373779 -0.0073151533 0.009269071 0.10857277 -0.048106138 0.036181055 -0.008736542
0.0011432052 0.038161688 -0.54680103 0.06434156 -0.064306006 0.18270817 0.065202154 0.10568711
-0.015124654 0.0025037874 -0.010102443 -0.010077972 0.1439391 -0.05562807 0.1318786 -0.031962555
0.059451383 0.01130233 -0.05560681 -0.044908945 0.22014624 -0.2271374 -0.002185473 0.16405004
0.13710015 0.03883576 0.17694494 0.28318873 0.048525225 0.16448319 0.009394911 -0.03549759
-0.0040162816 0.0012701662 0.16188784 -0.30905306 0.16439791 -0.0033606342 0.09772533 0.15360378
-0.69171584 -0.03304746 0.109114006 -0.03915543 0.11430819 -0.04953735 0.20573458 -0.04845265
0.10502179 0.19976255 -0.008048773 0.047825713 0.09031181 0.04993683 -0.009015967 0.11648684
-0.04915553 -0.05094171 -0.67640543 -0.31409124 0.027078794 0.008720398 -0.003924192 -0.03293366
0.19645445 0.21001405 -0.05266838 0.10326878 0.08156768 -0.012107006 0.17601915 -0.05390783
-0.033188757 -0.0944803 -0.034111287 -0.14941137 0.22808845 0.03183575 -0.02307052 -0.029982751
-0.004391004 0.02867034 -0.3790392 0.19946627 -0.045496974 0.0055536553 0.15726517 -0.03718807
0.1592757 -0.24837859 0.12579443 -0.02298203 -0.2246289 -0.020125046 0.22314203 0.0075296205
-0.026902338 0.11232129 0.29112786 0.15404573 0.09334999 -0.0018168731 0.18343902 -0.014354692
-0.014218037 -0.046575475 0.09580446 -0.006852675 0.27111158 0.23705915 0.17574252 0.03851749

net.4.bias f4 [2]
00000000: de4a c83d 05d7 24bc
0.09779905 -0.01006103
