cartpole_best_model.pth (torch, 273216 bytes, 6 tensors)

net.0.weight f4 [256, 4]
-1.3244407 0.20843202 0.27409068 0.10632326 -0.08987474 -0.15877159 -0.002651329 -0.29305974
-0.7378747 0.55196154 1.3976057 0.4991077 -0.1258405 0.46601874 0.18772635 0.38906
-0.022412162 -0.5722742 -0.74777126 0.41348654 0.2595307 -0.10150499 -0.5765872 -0.18517697
-0.37792096 0.34009224 -0.3507028 0.31919748 -1.1107277 0.38682255 1.045686 -0.49232185
-0.054199316 0.23310976 1.2583979 0.17897548 0.08497392 -0.60849065 -1.4347334 -0.4266191
1.3939818 -0.28727967 0.8859615 -0.25000858 -0.34514624 0.1726786 0.99619305 0.3007887
-0.08625303 -0.5348331 1.570091 0.40627366 0.4029049 -0.6896246 0.10294366 0.23569068
0.13328719 0.17359011 -1.5705907 0.6672165 -0.3742891 0.37569648 -0.7118648 -0.43250155
-0.6306709 -0.32853395 -2.1182394 -0.4035267 -0.048059244 -0.48423746 -1.112711 -0.16354063
-2.1975975 -0.5565147 -0.47787938 -0.21657687 -0.22077663 0.27854776 0.6575595 0.20111114
-0.62393546 -0.50016785 -2.1227295 -0.48371047 -0.6147257 -0.2315844 -0.019187486 0.16659293
-0.6339286 -0.3290802 -1.1354458 0.13010222 -0.23826927 0.48816636 0.7590397 -0.8919203
-0.06908829 0.25158063 1.907064 0.35487714 -1.0738496 -0.60215884 -0.6795026 -0.4290906
0.036954362 0.11263022 -1.1834164 0.3144245 -0.5007645 -0.32595965 2.2608283 0.015046142
0.1377041 -0.34275186 0.14151719 -0.069158345 0.5179005 -0.10069941 0.21595122 0.43951353
-0.8499406 0.12332281 -1.4867646 0.07748352 0.18510616 0.60352844 0.3204982 0.4053216
-0.30156937 -0.34055126 0.101758935 -0.2923457 -0.6171271 -0.053174816 -0.6406969 -0.043299217
-0.8598112 0.066390626 -0.52916914 0.06738889 0.2629654 0.4469334 -0.011158021 -0.17909646
0.3789505 -0.58139104 0.00631911 -0.4324779 -1.0094585 -0.6616901 -1.3186846 0.06809862
0.018394757 0.3231145 2.3433003 0.43697727 -0.4502761 0.10249616 0.10188533 -0.006611724
0.5840345 -0.24302536 -0.7216673 -0.12251156 0.70573974 0.4305468 0.8416069 -0.11730136
0.14322326 -0.16286184 -1.1171386 -0.20527136 -0.47760576 0.14055677 1.5108763 0.27918053
1.0432417 -0.03270169 -0.9722294 -0.6878118 0.12428232 0.4519803 0.9811708 0.4797398
-0.17681432 -0.39995515 -0.37398863 0.5634236 -0.14005288 0.605449 -0.97012573 0.4096647
-0.19573563 -0.7926964 -0.38035104 -0.52163327 -0.56111443 -0.2580744 -0.5834774 -0.21441472
0.63753396 0.76671433 -0.8176692 0.26243383 0.26485395 0.17841305 0.69952893 0.12962121
0.28024277 -0.3417277 0.53304625 0.42969418 -0.4660677 -0.5029929 -1.761973 -0.50951695
-0.6368427 0.5621864 0.46563038 0.2092226 -0.016999623 -0.20817803 0.23615532 -0.084882595
-0.20600024 0.66612834 0.23106758 -0.042529766 -0.026615474 0.14028344 2.0981717 0.23169203
-0.2810713 0.48836243 0.9184984 0.29862726 -1.4684502 -0.3089439 0.42628866 -0.061531242
-0.6288029 -0.5882554 -0.54060566 0.24043536 -0.5078852 -0.81363535 0.8143063 0.100521564
-0.045190524 0.3480711 2.3900514 0.45915216 0.7772861 0.17318508 0.7570798 -0.22143342
00000000: 4687 a9bf 346f 553e 9d55 8c3e 02c0 d93d
00000010: 3f10 b8bd 0595 22be ebc1 2dbb ed0b 96be
00000020: 5be5 3cbf 5a4d 0d3f bee4 b23f 0b8b ff3e
00000030: 55dc 00be 029a ee3e 563b 403e df32 c73e
00000040: b699 b7bc 9080 12bf f06d 3fbf 82b4 d33e
00000050: 35e1 843e d9e1 cfbd 389b 13bf 089f 3dbe
00000060: db7e c1be 9220 ae3e 518f b3be da6d a33e
00000070: 532c 8ebf 9b0d c63e 0ad9 853f 9c11 fcbe
00000080: 1a00 5ebd 53b4 6e3e 2f13 a13f 5945 373e
00000090: ce06 ae3d 0bc6 1bbf 58a5 b7bf d26d dabe
000000a0: ff6d b23f 5216 93be 5fce 623f 2001 80be
000000b0: 02b7 b0be a9d2 303e 8206 7f3f fa00 9a3e
000000c0: 6ea5 b0bd d2ea 08bf bef8 c83f 1a03 d03e
000000d0: 8d49 ce3e 3d8b 30bf 20d4 d23d e658 713e
000000e0: 707c 083e 9bc1 313e 1e09 c9bf b3ce 2a3f
000000f0: d2a2 bfbe 4a5b c03e c63c 36bf d870 ddbe
00000100: a673 21bf 9a35 a8be 3c91 07c0 0d9b cebe
00000110: c5d9 44bd f9ed f7be 506d 8ebf 3277 27be
00000120: 70a5 0cc0 bf77 0ebf 9bac f4be 54c6 5dbe
00000130: 4513 62be d09d 8e3e d255 283f 14f0 4d3e
00000140: 3cba 1fbf 000b 00bf cdda 07c0 e6a8 f7be
00000150: aa5e 1dbf 7624 6dbe 132f 9dbc 5697 2a3e
00000160: 2549 22bf 337d a8be 4a56 91bf 8439 053e
00000170: dcfc 73be f1f0 f93e 6d50 423f e454 64bf
00000180: 297e 8dbd 2dcf 803e ac1a f43f 75b2 b53e
00000190: e773 89bf 1527 1abf e2f3 2dbf c3b1 dbbe
000001a0: 755d 173d acaa e63d 307a 97bf 40fc a03e
000001b0: 1a32 00bf 2fe4 a6be 69b1 1040 1884 763c
000001c0: 4e02 0d3e 2c7d afbe e2e9 103e e4a2 8dbd
000001d0: 2195 043f 7e3b cebd 5122 5d3e eb07 e13e
000001e0: b595 59bf ab90 fc3d 4d4e bebf aeaf 9e3d
000001f0: 788c 3d3e d780 1a3f 5718 a43e 5086 cf3e
00000200: 4d67 9abe bc5c aebe fd66 d03d 56ae 95be
00000210: 0bfc 1dbf d6cd 59bd b604 24bf 855a 31bd
00000220: 961c 5cbf cff7 873d a177 07bf 3003 8a3d
00000230: 67a3 863e 74d4 e43e 22d0 36bc 1065 37be
00000240: cd05 c23e 0bd6 14bf 8910 cf3b be6d ddbe
00000250: f035 81bf 8664 29bf a8ca a8bf 4a77 8b3d
00000260: 9ab0 963c 446f a53e a2f8 1540 7cbb df3e
00000270: 978a e6be 82e9 d13d 42a9 d03d 29a7 d8bb
00000280: 4983 153f a4db 78be 30bf 38bf 57e7 fabd
00000290: 5cab 343f a170 dc3e 8d73 573f b23b f0bd
000002a0: 1ea9 123e 41c5 26be 66fe 8ebf a832 52be
000002b0: be88 f4be 1dee 0f3e 6564 c13f c0f0 8e3e
000002c0: f288 853f 35f2 05bd 07e4 78bf 6f14 30bf
000002d0: bb87 fe3d f669 e73e 022e 7b3f 74a0 f53e
000002e0: d00e 35be ecc6 ccbe 707b bfbe 873c 103f
000002f0: 066a 0fbe b5fe 1a3f 295a 78bf 92bf d13e
00000300: ec6e 48be 27ee 4abf 5fbd c2be c289 05bf
00000310: 32a5 0fbf 5422 84be c65e 15bf 888f 5bbe
00000320: 6d35 233f 6447 443f c552 51bf ba5d 863e
00000330: f09a 873e e9b1 363e 5414 333f 6cbb 043e
00000340: fb7b 8f3e eff6 aebe b875 083f e000 dc3e
00000350: 6da0 eebe 25c4 00bf 5588 e1bf b46f 02bf
00000360: 2008 23bf 73eb 0f3f 1b67 ee3e 733e 563e
00000370: cb42 8bbc 9f2c 55be b3d2 713e edd6 adbd
00000380: baf1 52be 6387 2a3f fb9c 6c3e b133 2ebd
00000390: b208 dabc 76a6 0f3e 7248 0640 ad40 6d3e
000003a0: 94e8 8fbe a40a fa3e b622 6b3f ace5 983e
000003b0: 2df6 bbbf e52d 9ebe 8242 da3e 2f08 7cbd
000003c0: 3af9 20bf e897 16bf 2265 0abf b034 763e
000003d0: c404 02bf 684a 50bf 6176 503f 40de cd3d
000003e0: b319 39bd 6036 b23e 9af6 1840 fe15 eb3e
000003f0: 39fc 463f 6e57 313e fbcf 413f 71bf 62be

net.0.bias f4 [256]
0.021332763 0.3169353 0.035654023 -0.5139442 0.33637348 0.30891198 -0.41914907 0.057321467
-0.38150993 -0.17477205 0.046835896 -0.22181392 -0.2995198 0.08289863 -0.22970775 0.056524124
-0.5647433 -0.20258528 0.0015293882 0.45840675 -0.4749129 0.36917755 -0.43072248 0.066935666
-0.37633267 0.07715308 0.15344134 0.17215236 0.46257526 0.34407955 0.34163103 0.42185298
0.35671145 -0.55031157 0.111609854 0.17660625 0.36240587 0.045448262 -0.37840036 -0.17846437
0.38609967 -0.0635707 0.3465243 -0.5160044 -0.31061465 0.26630437 -0.2534072 0.14862342
-0.55260634 -0.515146 0.08075113 -0.32250473 0.3800606 -0.24884488 -0.41176924 0.2107412
-0.24146813 -0.3961329 0.45590183 -0.31986997 -0.06134395 0.21814956 -0.35034275 -0.20749006
-0.39547086 0.43148705 0.49539667 0.43772453 0.5476503 0.13096945 -0.042183697 -0.09447965
0.26667404 0.08854416 -0.24174143 0.31899762 -0.09845431 0.32463145 0.3064755 -0.2549226
-0.52161086 -0.5219767 0.087398805 0.32838356 0.3974028 -0.7949036 -0.10141064 0.17796896
-0.43537182 -0.5561344 -0.63726884 0.054161333 -0.7432884 -0.22604224 -0.19409573 0.18676335
0.22922942 -0.5072378 -0.775925 -0.12487424 0.179782 0.40033594 0.31641063 -0.074508965
-0.6861454 0.19566646 -0.16915934 0.3153483 -0.51984996 -0.21933566 -0.26578486 -0.008073436
0.28825563 -0.3610991 0.0014997957 -0.2917204 0.47598422 0.3953748 -0.6662463 0.28694114
0.3467098 0.16368355 0.3889352 -0.6323348 -0.60228807 -0.6800076 0.27407506 0.29726344
-0.14796087 0.4241752 -0.23754069 -0.12769622 0.4406654 0.0723463 0.278464 -0.4022425
0.36111504 0.20513552 0.19881347 -0.25798497 -0.4711459 -0.23557973 0.2515451 0.18570949
-0.28913835 0.51671386 -0.46302825 -0.4517061 -0.4567282 0.43861493 0.3319061 -0.43722242
0.19346313 -0.7407728 -0.03240881 -0.10316836 -0.19064449 -0.47968367 -0.14972267 0.3524426
0.32280174 -0.09135977 -0.41733932 0.14373925 0.28228396 0.1446922 0.12613174 0.25022262
0.01905928 0.3499225 0.31098667 -0.05751502 0.4969934 0.46669105 -0.28715783 -0.51757485
0.20089746 0.4194231 -0.40500987 0.115551 -0.057821818 0.22274873 -0.15656067 0.39848107
-0.85690093 0.36554033 0.26903495 0.4453802 -0.061453395 -0.37000364 -0.1576681 0.19490738
-0.28930324 -0.34576586 0.07738813 -0.2685885 -0.50403905 -0.23393333 -0.45482382 0.36502174
-0.09755249 -0.2786323 -0.32598758 0.39275357 0.276011 0.32221365 0.27019438 0.37965807
0.350788 -0.49978316 0.36174598 0.45197174 0.14823808 -1.0287983 0.45216122 0.33650765
0.21443793 0.47278395 0.41080183 0.17638661 -0.15972072 -0.27922052 -0.42328638 0.08255061
0.35796008 0.2987638 0.17498237 -0.6647423 -0.5936652 0.15157478 -0.51463246 -0.23072442
0.5043909 -0.019641617 0.44247136 -0.32432297 -0.16727808 -0.6891237 0.3482271 -0.33116162
0.47432214 0.5082394 0.27799395 0.5013272 -0.5909326 0.2873904 0.39604694 0.33746114
-0.39641723 0.21090116 -0.41796383 0.4955175 -0.15694469 0.3172341 0.353049 -0.41677117
00000000: 0cc2 ae3c 5845 a23e f409 123d d991 03bf
00000010: 2539 ac3e b629 9e3e b59a d6be eac9 6a3d
00000020: 4555 c3be 72f7 32be ffd6 3f3d 3023 63be
00000030: a95a 99be c2c6 a93d 8238 6bbe d785 673d
00000040: 0493 10bf 8472 4fbe c175 c83a 4ab4 ea3e
00000050: c927 f3be d704 bd3e a887 dcbe 9115 893d
00000060: adae c0be 6f02 9e3d ba1f 1d3e b548 303e
00000070: aad6 ec3e 322b b03e 43ea ae3e 1dfd d73e
00000080: e2a2 b63e 38e1 0cbf b593 e43d 45d8 343e
00000090: 438d b93e f527 3a3d b1bd c1be 5dbf 36be
000000a0: dbae c53e 5b31 82bd a26b b13e dd18 04bf
000000b0: e208 9fbe 0c59 883e 97be 81be bd30 183e
000000c0: 9c77 0dbf 9ce0 03bf d960 a53d 571f a5be
000000d0: 4e97 c23e 31d1 7ebe 6bd3 d2be 8bcc 573e
000000e0: 6c43 77be eed1 cabe f76b e93e ffc5 a3be
000000f0: cb43 7bbd 9962 5f3e 2060 b3be 4678 54be
00000100: 287b cabe dfeb dc3e a2a4 fd3e 6e1d e03e
00000110: cf32 0c3f db1c 063e d0c8 2cbd 8c7e c1bd
00000120: 8089 883e a456 b53d 118b 77be a853 a33e
00000130: 6aa2 c9bd 1836 a63e 5bea 9c3e 3785 82be
00000140: 4a88 05bf 44a0 05bf 25fe b23d e421 a83e
00000150: 6178 cb3e cd7e 4bbf 62b0 cfbd 7f3d 363e
00000160: 0ee9 debe d35e 0ebf 0d24 23bf 46d8 5d3d
00000170: 2648 3ebf 9e77 67be 08c1 46be e43e 3f3e
00000180: 1ebb 6a3e 56da 01bf 05a3 46bf 11be ffbd
00000190: c618 383e d5f8 cc3e 9300 a23e 2898 98bd
000001a0: 3aa7 2fbf ca5c 483e 1b38 2dbe 5575 a13e
000001b0: e314 05bf 8799 60be f414 88be 7246 04bc
000001c0: 3e96 933e fbe1 b8be cb94 c43a 605c 95be
000001d0: 34b4 f33e 916e ca3e 1e8f 2abf f3e9 923e
000001e0: f283 b13e a99c 273e 8422 c73e b2e0 21bf
000001f0: 8d2f 1abf fa14 2ebf 9153 8c3e ea32 983e
00000200: 0e83 17be 7e2d d93e de3d 73be ccc2 02be
00000210: e59e e13e 4c2a 943d d592 8e3e bbf2 cdbe
00000220: 12e4 b83e 0c0f 523e c295 4b3e 9b16 84be
00000230: 093a f1be d03b 71be 85ca 803e a12a 3e3e
00000240: f109 94be 5c47 043f 0a12 edbe 0646 e7be
00000250: 47d8 e9be 2392 e03e 99ef a93e 9edb dfbe
00000260: 331b 463e 49a3 3dbf 1abf 04bd ef49 d3bd
00000270: 4f38 43be 1999 f5be e650 19be 5b73 b43e
00000280: 4546 a53e d51a bbbd 80ad d5be 6230 133e
00000290: 8687 903e 312a 143e ae28 013e 2e1d 803e
000002a0: 3522 9c3c 0b29 b33e a539 9f3e df94 6bbd
000002b0: eb75 fe3e 21f2 ee3e 5a06 93be c97f 04bf
000002c0: 10b8 4d3e a0be d63e 745d cfbe 01a6 ec3d
000002d0: 92d6 6cbd 3e18 643e 7151 20be b605 cc3e
000002e0: dc5d 5bbf 1a28 bb3e f3be 893e e008 e43e
000002f0: 8eb6 7bbd 1e71 bdbe bf73 21be cd95 473e
00000300: 8e1f 94be 3908 b1be ab7d 9e3d 6f84 89be
00000310: b408 01bf 388c 6fbe abde e8be 21e4 ba3e
00000320: 9ac9 c7bd e5a8 8ebe d8e7 a6be ff16 c93e
00000330: 5051 8d3e 30f9 a43e eb56 8a3e 8b62 c23e
00000340: 7c9a b33e 94e3 ffbe c536 b93e d768 e73e
00000350: b9cb 173e aaaf 83bf ad81 e73e bb4a ac3e
00000360: 9e95 5b3e bd10 f23e 9e54 d23e b19e 343e
00000370: d48d 23be fef5 8ebe feb8 d8be 4b10 a93d
00000380: 8b46 b73e 92f7 983e 942e 333e 8d2c 2abf
00000390: 71fa 17bf 6b36 1b3e f4be 03bf 0643 6cbe
000003a0: c31f 013f 75e7 a0bc 9b8b e23e a90d a6be
000003b0: f24a 2bbe 696a 30bf d34a b23e 048e a9be
000003c0: 5ada f23e fa1b 023f 3955 8e3e fb56 003f
000003d0: 5c47 17bf d624 933e aac6 ca3e b5c7 ac3e
000003e0: 33f7 cabe 79f6 573e 5bff d5be 78b4 fd3e
000003f0: 1cb6 20be 826c a23e d7c2 b43e 0863 d5be

net.2.weight f4 [256, 256]
0.0056242216 -0.022596903 -0.04072099 0.05738496 -0.042983383 0.01845177 0.009909531 0.032428205
0.049274795 -0.006168126 -0.013837266 -0.0041114464 -0.063053325 -0.024268713 -0.080588214 0.04102907
-0.028763717 -0.026104547 -0.082818724 -0.030081537 -0.05627932 -0.009131042 0.006073536 0.04045193
-0.0844499 -0.052512266 -0.0032432054 -0.06057409 0.015468056 0.015938824 0.01867796 0.026826875
-0.04881414 -0.03988471 0.043045454 -0.069464445 -0.028196445 0.04150012 -0.05463001 0.0031831064
-0.029755164 -0.08505847 -0.009912606 -0.048230857 0.0037816102 -0.056656763 -0.022576222 0.0030616075
-0.058313765 -0.08159466 -0.06145378 -0.0350212 -0.06952007 -0.054149844 -0.074775815 0.028862292
-0.08676919 -0.039728303 0.005686071 0.008992521 -0.07864156 -0.006775506 -0.0375345 -0.056845702
0.01759061 0.040042873 -0.027622148 0.034569684 -0.07187632 -0.05792372 -0.11294118 0.03798413
-0.030766727 0.027877113 0.05614528 -0.025076063 -1.2091257e-05 0.014640034 -0.04765062 0.012235213
0.08570419 0.057521533 -0.007624645 0.028927984 -0.017158417 -0.0013964484 -0.041873522 -0.008922372
0.008067725 -0.003928956 -0.022225603 0.022015804 -0.0355351 -0.012965064 -0.10018342 0.010828421
0.01751467 -0.08237063 -0.062119808 -0.032338724 -0.027116267 -0.016221337 -0.038500223 -0.09263421
-0.043470647 -0.011574077 -0.031102112 -0.047946636 -0.046406794 -0.04134995 -0.06842874 0.002098898
-0.0044707926 0.014332934 -0.07418619 0.007476307 0.031774323 -0.024358237 -0.05908533 0.020736124
-0.017833097 -0.017034251 0.003910372 -0.053451583 0.044325374 -0.087973185 0.024997743 0.0015316041
0.002188504 0.0054122414 -0.0014551951 -0.00074989867 0.05404798 -0.028739316 -0.020106172 -0.04830322
0.04685614 -0.04390468 0.022116512 -0.008306773 0.023131227 0.047348063 -0.059114512 -0.04759833
0.0409135 -0.06812141 0.012156742 0.0073314705 0.00036398237 -0.05946711 0.047598463 -0.025303937
-0.06494077 0.0052261576 -0.06529763 -0.017590495 -0.080267206 -0.046420913 -0.090805106 -0.04378202
0.04985445 -0.102327384 0.0015523679 -0.0048712557 -0.025756065 -0.0055367406 -0.038447965 0.06307812
-0.003013314 0.0061060083 0.051860563 -0.041044608 -0.04406465 -0.03048834 0.02695734 -0.012290998
0.025199082 0.044307195 -0.019613795 0.02640629 0.027369156 0.019703705 -0.0032084542 0.023931673
0.030226113 0.010259614 -0.019010795 0.029975569 -0.05887633 -0.0678087 -0.04594921 -0.04969958
-0.055439398 -0.052046925 0.048421837 -0.01603005 -0.026445163 -0.03691112 -0.018301202 -0.06523873
0.021160057 -0.036716558 -0.06438436 -0.0064178267 0.0406923 -0.0103803165 -0.03620887 0.01902873
-0.012821993 -0.056410916 0.02455556 0.04390812 -0.005928127 -0.016194152 -0.06518796 -0.057247467
0.044300094 0.0070247464 0.009489991 -0.041234076 -0.0009639405 -0.024654271 0.009506784 -0.04831906
-0.02570011 -0.032042667 -0.07411293 -0.020139625 0.024985878 -0.02193479 0.06715339 0.0035429879
-0.03082718 -0.065156005 -0.025968354 -0.010951915 0.0021799426 -0.021588033 -0.03503446 0.012802612
0.0028258641 -0.07260294 0.0420738 0.01106562 0.046145983 0.0070737205 0.050199956 -0.04460668
0.07660514 -0.0077638314 -0.030269934 -0.007000782 0.0297077 -0.014165543 0.03782811 -0.035651125
00000000: 644b b83b 241d b9bc 0ecb 26bd 7e0c 6b3d
00000010: 580f 30bd 2b28 973c 965b 223c 70d3 043d
00000020: 5ed4 493d fe1d cabb b3b5 62bc 50b9 86bb
00000030: 1a22 81bd 2ecf c6bc 6f0b a5bd 190e 283d
00000040: e3a1 ebbc 34d9 d5bc dd9c a9bd 8e6d f6bc
00000050: 2585 66bd 5e9a 15bc 8304 c73b ecb0 253d
00000060: 12f4 acbd 1a17 57bd f58b 54bb 891c 78bd
00000070: bb6d 7d3c 2392 823c 8502 993c 09c4 db3c
00000080: 56f1 47bd 265e 23bd 6e50 303d 6043 8ebd
00000090: 3bfc e6bc 08fc 293d b8c3 5fbd aa9b 503b
000000a0: 1ac1 f3bc 2333 aebd 7c68 22bc b88d 45bd
000000b0: e4d4 773b ec10 68bd c5f1 b8bc 40a5 483b
000000c0: 6ada 6ebd 1a1b a7bd f5b6 7bbd 6472 0fbd
000000d0: 8a60 8ebd 3acc 5dbd 1024 99bd 9d70 ec3c
000000e0: 0cb4 b1bd 25ba 22bd 3852 ba3b 5e55 133c
000000f0: d40e a1bd 1005 debb c7bd 19bd 0ad7 68bd
00000100: 2f1a 903c ff03 243d d847 e2bc f198 0d3d
00000110: e433 93bd 6c41 6dbd b54d e7bd 3f95 1b3d
00000120: 810a fcbc 8b5e e43c 98f8 653d 516c cdbc
00000130: 8edb 4ab7 c1dc 6f3c 4c2d 43bd 3476 483c
00000140: ae85 af3d b39b 6b3d 28d8 f9bb 61fa ec3c
00000150: cf8f 8cbc 0809 b7ba 9283 2bbd 242f 12bc
00000160: 7e2e 043c 79be 80bb 7812 b6bc 7d5a b43c
00000170: 418d 11bd 6b6b 54bc f72c cdbd b169 313c
00000180: ed7a 8f3c efb1 a8bd 5771 7ebd 9c75 04bd
00000190: ef22 debc 9ce2 84bc 69b2 1dbd 01b7 bdbd
000001a0: 470e 32bd 33a1 3dbc dbc9 febc b163 44bd
000001b0: 0d15 3ebd 915e 29bd 5e24 8cbd aa8d 093b
000001c0: ba7f 92bb afd4 6a3c eeee 97bd cffb f43b
000001d0: cb25 023d ed8a c7bc 7603 72bd cede a93c
000001e0: b716 92bc 6a8b 8bbc 9422 803b 0cf0 5abd
000001f0: 868e 353d 492b b4bd 11c8 cc3c 1bc0 c83a
00000200: 016d 0f3b 2c59 b13b 3fbc beba d994 44ba
00000210: 6a61 5d3d b76e ebbc b3b5 a4bc 99d9 45bd
00000220: 39ec 3f3d 65d5 33bd b02d b53c 2219 08bc
00000230: b37d bd3c 0bf0 413d 0f22 72bd 77f6 42bd
00000240: ea94 273d 3d83 8bbd 122d 473c d53c f03b
00000250: e3d4 be39 c993 73bd 9bf6 423d 344a cfbc
00000260: abff 84bd 3040 ab3b c4ba 85bd f119 90bc
00000270: 2263 a4bd db23 3ebd 07f8 b9bd c754 33bd
00000280: 2e34 4c3d 0591 d1bd d378 cb3a 0e9f 9fbb
00000290: 62fe d2bc 8c6d b5bb 9d7b 1dbd 1a2f 813d
000002a0: 057b 45bb e914 c83b be6b 543d 641e 28bd
000002b0: 227d 34bd afc2 f9bc a4d5 dc3c 2f60 49bc
000002c0: 4e6e ce3c 767b 353d 1cad a0bc 0152 d83c
000002d0: 4835 e03c aa69 a13c ee44 52bb 5b0c c43c
000002e0: c19c f73c f117 283c 87bc 9bbc 538f f53c
000002f0: 4e28 71bd 4adf 8abd 3d35 3cbd c991 4bbd
00000300: 6c14 63bd 282f 55bd fa55 463d 7451 83bc
00000310: 87a3 d8bc 1d30 17bd 67ec 95bc e29b 85bd
00000320: db57 ad3c 1a64 16bd f3db 83bd a24c d2bb
00000330: f8ac 263d 3412 2abc c14f 14bd 24e2 9b3c
00000340: 5613 52bc 220f 67bd be28 c93c 00d9 333d
00000350: bc40 c2bb 99a9 84bc 4481 85bd 527c 6abd
00000360: 0474 353d d82f e63b e87b 1b3c 10e5 28bd
00000370: f4b0 7cba c1f7 c9bc 58c2 1b3c 35ea 45bd
00000380: 0989 d2bc 2c3f 03bd 85c8 97bd dbfb a4bc
00000390: 2faf cc3c 97b0 b3bc b787 893d 7931 683b
000003a0: 4889 fcbc 8370 85bd 96bb d4bc a96f 33bc
000003b0: 5edd 0e3b 63d9 b0bc 4b80 0fbd 0cc2 513c
000003c0: 2232 393b dab0 94bd 9455 2c3d 934c 353c
000003d0: 9203 3d3d abca e73b 789e 4d3d 7eb5 36bd
000003e0: 28e3 9c3d bd67 febb a7f8 f7bc d166 e5bb
000003f0: 905d f33c 9816 68bc a6f1 1a3d ea06 12bd

net.2.bias f4 [256]
0.025623195 0.10662917 0.14801027 0.16250652 0.08341846 0.118891284 0.097391486 -0.008225132
-0.017108792 -0.022057202 0.09591472 0.06712015 -0.063869864 0.11933449 -0.07652946 0.06598886
-0.022362754 -0.032186195 -0.012479361 -0.057657745 0.054788176 -0.1450052 0.09603003 0.14290756
-0.0058443095 0.21748102 -0.05455115 -0.018662399 0.025404034 0.009911287 0.228206 -0.0076475926
0.09558676 0.13767315 -0.11700379 -0.028087435 -0.05478951 0.11869978 0.09830696 0.03265382
-0.06500029 0.08829434 0.022416215 0.0022176504 0.024059752 0.018599115 -0.053631824 -0.011236995
0.012799418 -0.0619442 -0.060701456 0.045242503 -0.07782457 0.18852437 0.012436859 0.045582287
0.02790628 -0.18139517 -0.021442998 0.007756108 0.005964397 0.19291885 0.20647296 0.112835094
-0.021667084 0.18505238 0.047825508 -0.024467569 0.048526328 0.00916529 0.041253984 0.06600806
0.09673733 0.049116444 -0.06797337 0.15185566 0.06656637 0.124951914 0.16003275 -0.17723124
-0.04048821 -0.015126895 -0.02363017 0.011317568 0.008535064 -0.045646332 -0.008792911 -0.18634692
-0.0050451304 0.09839496 -0.015356844 0.15905899 0.09760069 0.12455641 0.09270497 -0.052724134
0.12819041 -0.046142574 -0.044964746 -0.09772402 0.013056531 0.109280765 -0.07376376 -0.054654416
0.013005565 0.013765269 0.12937526 0.15121172 -0.0003608023 0.0047519314 0.02514017 0.16435951
-0.06582138 -0.04209124 -0.07698169 -0.12234705 -0.052546438 -0.07569731 0.2034517 -0.040847003
0.011534048 -0.06858639 -0.06582266 0.036846854 -0.030952333 0.15547253 0.17593348 -0.03782604
0.18027431 0.042137653 -0.05980239 0.024628513 -0.044931803 0.006197504 0.045488264 -0.028789105
0.1526232 0.032344278 -0.023483416 0.0977903 -0.05364454 0.032688916 0.14677942 -0.023141393
0.058209155 0.14580728 0.028207224 -0.02670425 -0.01595971 0.1828395 0.21971387 -0.005325131
0.11035931 0.1746071 0.107162066 0.09909568 0.11123848 0.054784186 -0.11367249 -0.023154698
0.09025186 0.21708177 0.06912852 0.17414702 0.009365823 0.11206095 0.10985244 0.10194736
-0.04091247 -0.047379054 -0.030906916 0.046949755 -0.076721534 0.024009435 -0.054496475 -0.022598932
-0.032834306 -0.02561037 -0.058078066 -0.07289358 0.043589797 0.11105413 0.10253789 0.1008798
0.13202962 0.1908279 0.07049819 0.0069321413 0.05399976 -0.074740425 -0.02959005 -0.046930503
0.20128924 0.0854379 0.1268137 0.172547 0.23721257 -0.09138953 0.05086085 0.21051446
0.07258819 -0.061806675 -0.03005214 0.19378899 -0.019536078 0.06624795 -0.035411563 -0.026293356
0.013095045 0.035311613 0.08119489 -0.018419122 0.18902233 0.07939505 -0.08291014 -0.008763886
0.13140619 0.15257002 0.06967245 0.022582887 -0.062180072 -0.06545305 -0.041756056 0.0424013
0.0073264022 0.16152494 0.20760207 0.06841303 0.043276582 -0.15139486 0.009237576 0.1133409
0.030858744 -0.021211319 -0.009522638 0.01996428 0.04200832 -0.015504217 0.069472335 0.0031216654
0.08776538 0.17353106 0.0715719 0.04178835 0.008081012 -0.04484905 -0.068530105 -0.039174326
-0.020886712 0.010383136 0.09609017 -0.05735316 0.12703273 -0.025007032 0.029832339 0.08663537
00000000: bce7 d13c 6560 da3d 0190 173e 1c68 263e
00000010: 4cd7 aa3d 467d f33d 3075 c73d b4c2 06bc
00000020: bd27 8cbc 4eb1 b4bc f06e c43d 4a76 893d
00000030: 34ce 82bd a465 f43d 7abb 9cbd 2b25 873d
00000040: 1832 b7bc acd5 03bd 3c76 4cbc 872a 6cbd
00000050: 9169 603d 3e7c 14be 64ab c43d 5c56 123e
00000060: 9f81 bfbb 58b3 5e3e 0771 5fbd e3e1 98bc
00000070: 1f1c d03c f362 223c d5ae 693e a898 fabb
00000080: fec2 c33d 31fa 0c3e af9f efbd 9f17 e6bc
00000090: f76a 60bd df18 f33d 2955 c93d 03c0 053d
000000a0: df1e 85bd aad3 b43d 36a2 b73c 0056 113b
000000b0: f518 c53c 2c5d 983c 0bad 5bbd 601b 38bc
000000c0: a6b4 513c 34b9 7dbd 17a2 78bd 3450 393d
000000d0: 7d62 9fbd 880c 413e f8c3 4b3c 7eb4 3a3d
000000e0: b69b e43c a8bf 39be 3aa9 afbc f326 fe3b
000000f0: fd70 c33b 858c 453e a66d 533e 1616 e73d
00000100: 2b7f b1bc 5f7e 3d3e aee4 433d 3670 c8bc
00000110: 8bc3 463d 032a 163c f0f9 283d 3c2f 873d
00000120: 391e c63d 532e 493d 9f35 8bbd 0d80 1b3e
00000130: f353 883d cae6 ff3d a0df 233e 1b7c 35be
00000140: f7d6 25bd ccd6 77bc 0f94 c1bc 526d 393c
00000150: a7d6 0b3c a6f7 3abd 2410 10bc bad1 3ebe
00000160: 9f51 a5bb 4c83 c93d 469b 7bbc 5ce0 223e
00000170: dfe2 c73d 6e17 ff3d 1adc bd3d 43f5 57bd
00000180: 5944 033e ffff 3cbd f42c 38bd 8823 c8bd
00000190: 0feb 553c 98ce df3d 7411 97bd 4fdd 5fbd
000001a0: 4b15 553c b987 613c f37a 043e 3fd7 1a3e
000001b0: 112a bdb9 17b6 9b3b c2f2 cd3c dc4d 283e
000001c0: 5ccd 86bd dd67 2cbd 94a8 9dbd 1791 fabd
000001d0: ef3a 57bd 3107 9bbd a455 503e 304f 27bd
000001e0: 4ef9 3c3c 0577 8cbd 08ce 86bd baec 163d
000001f0: bf8f fdbc 3134 1f3e e827 343e 7aef 1abd
00000200: d499 383e 8898 2c3d 5af3 74bd bcc1 c93c
00000210: 690a 38bd 6e14 cb3b e751 3a3d 21d7 ebbc
00000220: 4249 1c3e 6f7b 043d 4b60 c0bc 4846 c83d
00000230: 61ba 5bbd d0e4 053d 584d 163e 0593 bdbc
00000240: b96c 6e3d 814e 153e d612 e73c dfc2 dabc
00000250: f0bd 82bc 473a 3b3e acfc 603e 707e aebb
00000260: 1004 e23d 34cc 323e c977 db3d adf2 ca3d
00000270: 00d1 e33d 6265 603d 1fcd e8bd ecae bdbc
00000280: f8d5 b83d af4a 5e3e 4193 8d3d 9953 323e
00000290: 1c73 193c 3680 e53d 51fa e03d c7c9 d03d
000002a0: d693 27bd 8a10 42bd 8030 fdbc 634e 403d
000002b0: 2e20 9dbd 6faf c43c b237 5fbd 6521 b9bc
000002c0: 447d 06bd d7cc d1bc 44e3 6dbd 3b49 95bd
000002d0: 378b 323d 5970 e33d 63ff d13d 129a ce3d
000002e0: c632 073e 6468 433e 5b61 903d 0427 e33b
000002f0: da2e 5d3d 8211 99bd d566 f2bc 333a 40bd
00000300: c41e 4e3e 11fa ae3d 73db 013e 29b0 303e
00000310: dae7 723e 6f2a bbbd 7753 503d 1a91 573e
00000320: 1ea9 943d ff28 7dbd e82f f6bc 9f70 463e
00000330: 200a a0bc 01ad 873d b70b 11bd 2a65 d7bc
00000340: 9a8c 563c e9a2 103d 8249 a63d b3e3 96bc
00000350: 128f 413e df99 a23d cbcc a9bd 6796 0fbc
00000360: 588f 063e 513b 1c3e 6eb0 8e3d bfff b83c
00000370: 88b0 7ebd 400c 86bd 6608 2bbd fcac 2d3d
00000380: 5112 f03b cb66 253e a395 543e 211c 8c3d
00000390: c942 313d 4107 1bbe 3459 173c 461f e83d
000003a0: 7acb fc3c 5cc3 adbc d704 1cbc 218c a33c
000003b0: eb10 2c3d 6605 7ebc 8347 8e3d db94 4c3b
000003c0: 56be b33d 20b2 313e 4a94 923d 432a 2b3d
000003d0: 3966 043c a3b3 37bd 8359 8cbd 4275 20bd
000003e0: 9c1a abbc 071e 2a3c ecca c43d 26eb 6abd
000003f0: de14 023e 8cdb ccbc f362 f43c e36d b13d

net.4.weight f4 [2, 256]
0.0016633153 1.3377672 1.1230357 1.2958673 1.2934196 1.6338882 1.2255868 -0.05228838
0.04623568 -0.03831533 -0.5635046 0.3597693 -0.03102298 0.7241638 0.0024069236 1.0474194
-0.034586348 0.032665942 0.5370714 -0.044413865 0.30654037 -0.51914084 0.3234518 0.69735914
0.011805574 -0.03430864 -0.048801817 0.011889656 1.5816863 -0.014240387 1.3074479 0.0413391
0.8460393 0.52611387 1.4521649 -0.017580664 0.01153389 0.6835926 1.1860993 -0.029489191
-0.0536155 0.66773224 -0.049912874 -0.02689752 0.6205818 0.0153926145 -0.031648677 0.051764965
-0.051700786 0.031362474 0.04013919 -0.026148045 -0.004561897 -0.11202583 1.5770967 0.82439524
-0.052104402 -0.27282903 0.054734763 -0.0007288733 -0.04216454 -0.7900452 3.1673439 -0.07551588
0.008689582 1.1105946 0.7365653 -0.022579255 0.758924 0.018615475 1.2154741 -2.0094893
1.0500673 -0.02438728 -0.022043778 0.7504749 1.1658216 -0.35282066 0.59473985 0.28569907
-0.008708036 0.055379894 -0.0018666671 0.0030746502 -0.036159694 -0.010827156 0.036061477 -0.46491116
-0.040622402 1.172744 -0.001946614 0.4254432 -0.60377985 0.76780814 0.7282642 -0.02883675
0.65886164 -0.05270228 -0.06046915 1.361597 -0.026481047 0.97673535 0.027459176 -0.0022835655
-0.04951487 -0.015299809 1.8577545 -1.3723584 -0.038081348 -0.01596071 -0.044646636 0.28978282
-0.023970878 0.013847503 -0.003326688 -0.39185634 -0.023346422 0.0045632953 1.0379572 0.013724096
0.025406146 -0.03796485 -0.000466816 0.81406265 0.012876789 0.840408 0.9507271 0.02507893
0.542914 -0.0515824 0.0037225713 -0.019163903 0.029508559 -0.014316241 0.0125974 0.006987478
0.5101254 -0.0060038785 -0.0028121239 0.9887425 -0.014432974 0.028402872 1.3194768 5.992936
2.2913504 -0.22026302 -0.0025872733 -0.018740848 2.4670146 1.2820657 0.54252964 0.987478
1.1572696 0.18266062 0.63950735 1.059084 1.5585312 0.8027909 -0.036701925 0.00034911348
1.2240957 -0.6897825 0.40367848 -0.7362539 -0.04729863 0.69402677 -1.3784015 1.3444537
-0.037485562 -0.0056377985 -0.023723798 0.80529356 2.3993766 -0.020807026 -0.06439784 -0.026791235
-0.030205458 0.0011415334 -0.02353472 -0.009230949 -0.03436122 0.3270502 1.4561297 1.1920094
1.584267 1.3990313 1.3560731 0.059915513 -0.04991496 0.15031639 0.032273304 -0.016537553
1.166168 1.1393397 0.5274601 1.1782516 0.1664663 -0.028793627 0.94454545 1.586841
0.7360972 0.041742343 2.459907 1.5043184 0.059686683 0.502956 0.006697965 1.6970751
1.1720155 -0.004313442 0.62275577 -0.051574692 1.141418 0.824094 -0.19312842 2.318287
0.48814493 -0.5321142 0.5626008 -0.012115149 -0.038360395 0.035323888 -0.019921837 -0.023660855
2.0046358 1.8300762 -0.8157491 1.0010728 -0.014640782 -1.8776237 -0.036312822 -0.25589034
-0.03697201 -0.011996659 -0.052398004 -0.034156643 0.0013759609 -0.042337313 0.39701334 -0.030815376
0.74420273 1.16586 0.6889935 1.2988517 -0.042345505 0.020494707 -0.033691864 -0.009529693
0.20804958 0.029403893 1.4374427 -0.022937762 1.6712929 0.049956065 0.03101167 0.3533163
00000000: 9a03 da3a f53b ab3f a2bf 8f3f fbde a53f
00000010: c68e a53f 4023 d13f 07e0 9c3f 572c 56bd
00000020: a061 3d3d 89f0 1cbd d641 10bf af33 b83e
00000030: e823 febc cc62 393f 7abd 1d3b d711 863f
00000040: 6aaa 0dbd b9cc 053d 837d 093f 50eb 35bd
00000050: dcf2 9c3e 6ae6 04bf 799b a53e 2186 323f
00000060: 2b6c 413c 3787 0cbd 6ae4 47bd d5cc 423c
00000070: b274 ca3f 8350 69bc 745a a73f 3053 293d
00000080: 0896 583f 66af 063f 8ae0 b93f 5305 90bc
00000090: a4f8 3c3c edff 2e3f 1ad2 973f 5193 f1bc
000000a0: ed9b 5bbd 80f0 2a3f 7171 4cbd 3058 dcbc
000000b0: 73de 1e3f 4e31 7c3c 0ba2 01bd 8007 543d
000000c0: 34c4 53bd f075 003d fe68 243d 6d34 d6bc
000000d0: f77b 95bb cc6d e5bd 4ede c93f 910b 533f
000000e0: 6d6b 55bd 3fb0 8bbe 8f31 603d dc11 3fba
000000f0: bab4 2cbd 6740 4abf c3b5 4a40 12a8 9abd
00000100: c05e 0e3c f727 8e3f 8b8f 3c3f 21f8 b8bc
00000110: d848 423f 7b7f 983c a894 9b3f 799b 00c0
00000120: 9b68 863f d5c7 c7bc 2795 b4bc 1f1f 403f
00000130: a439 953f e9a4 b4be df40 183f 2647 923e
00000140: 26ac 0ebc 07d6 623d f4aa f4ba 1280 493b
00000150: 301c 14bd 6264 31bc 33b5 133d d608 eebe
00000160: ad63 26bd 7a1c 963f 8725 ffba b1d3 d93e
00000170: 5191 1abf 138f 443f 866f 3a3f 0c3b ecbc
00000180: 28ab 283f 59de 57bd 80ae 77bd cf48 ae3f
00000190: c8ee d8bc 540b 7a3f 11f2 e03c dfa7 15bb
000001a0: 1bd0 4abd 0dac 7abc e6ca ed3f 71a9 afbf
000001b0: 30fb 1bbd 09c0 82bc 64df 36bd 6a5e 943e
000001c0: 935e c4bc a3e0 623c 9004 5abb 65a1 c8be
000001d0: ff40 bfbc b287 953b c8db 843f 08db 603c
000001e0: 8d20 d03c 0881 1bbd fcbe f4b9 6966 503f
000001f0: 2bf9 523c fb24 573f da62 733f 5472 cd3c
00000200: 69fc 0a3f 1148 53bd 62f6 733b 9efd 9cbc
00000210: efbb f13c ab8e 6abc 5365 4e3c 37f7 e43b
00000220: 9497 023f 2fbc c4bb 9c4b 38bb 3a1e 7d3f
00000230: 4878 6cbc 24ad e83c 9ee4 a83f 22c6 bf40
00000240: 7ca5 1240 a18c 61be 3e8f 29bb 6886 99bc
00000250: 91e3 1d40 bb1a a43f 39e3 0a3f 5ccb 7c3f
00000260: 6921 943f 630b 3b3e c1b6 233f 1190 873f
00000270: f37d c73f b483 4d3f c254 16bd 3809 b739
00000280: 2baf 9c3f 9695 30bf f2ae ce3e 237b 3cbf
00000290: 35bc 41bd bdab 313f 766f b0bf 0f17 ac3f
000002a0: 768a 19bd 48bd b8bb 6958 c2bc b827 4e3f
000002b0: 638f 1940 7f73 aabc 04e3 83bd 4b79 dbbc
000002c0: 7071 f7bc 819f 953a e3cb c0bc 683d 17bc
000002d0: 5abe 0cbd 2073 a73e 7562 ba3f c493 983f
000002e0: 43c9 ca3f 7513 b33f ce93 ad3f f869 753d
000002f0: a173 4cbd 8aec 193e 0331 043d c379 87bc
00000300: fe44 953f e2d5 913f a007 073f f3d0 963f
00000310: 2476 2a3e 9de0 ebbc bbcd 713f 9b1d cb3f
00000320: de70 3c3f 05fa 2a3d 1e6f 1d40 818d c03f
00000330: 067a 743d b9c1 003f 9a7a db3b c239 d93f
00000340: 9b04 963f c657 8dbb ec6c 1f3f fc3f 53bd
00000350: fc19 923f d3f7 523f 75c3 45be d05e 1440
00000360: 22ee f93e a338 08bf 9b06 103f 9e7e 46bc
00000370: ca1f 1dbd c8af 103d 1f33 a3bc 69d4 c1bc
00000380: f44b 0040 f03f ea3f efd4 50bf 2723 803f
00000390: e4df 6fbc f955 f0bf c1bc 14bd 0f04 83be
000003a0: f66f 17bd a38d 44bc 4a9f 56bd d6e7 0bbd
000003b0: 9659 b43a e469 2dbd 5545 cb3e 8770 fcbc
000003c0: 1284 3e3f e73a 953f e161 303f c640 a63f
000003d0: 7b72 2dbd 84e4 a73c 7b00 0abd 6e22 1cbc
000003e0: f30a 553e 6fe0 f03c 1ffe b73f f9e7 bbbc
000003f0: edec d53f bb9e 4c3d 300c fe3c e0e5 b43e

net.4.bias f4 [2]
-0.08737975 0.03998235
00000000: 28f4 b2bd 88c4 233d
