gms_cartpole_best_model.pth (torch, 274344 bytes, 6 tensors)

net.0.weight f4 [256, 5]
000000 a9 24 31 3f 6c 70 ce 3e d8 90 28 3f cb d4 88 3e
       0.69196564 0.40320146 0.65846014 0.26724848
000010 7b 32 12 3c 26 c2 c5 be 9a 1d 77 3d b7 81 99 be
       0.008923168 -0.38624686 0.060330965 -0.29981777
000020 94 ab 89 be d1 e1 38 be f7 b5 b7 3e 29 d3 39 3f
       -0.26888716 -0.18054892 0.35881016 0.7258783
000030 7f ea 05 40 cb a2 65 3e 7e c7 03 3d 13 df 26 bf
       2.0924375 0.22425382 0.032172672 -0.65184134
000040 cf 29 11 3d c0 8a c4 3e d0 ce 5a 3d ed cd 42 3c
       0.035440262 0.38387108 0.053419888 0.011889917
000050 ce 90 af bb e9 52 81 3d f2 98 1b c0 08 92 48 bf
       -0.0053578382 0.06314642 -2.43121 -0.78347826
000060 f2 14 32 bc 7d 00 cd bd 48 a2 11 be 7a 2a 0e 3f
       -0.010869252 -0.10009859 -0.14222062 0.55533564
000070 b7 38 2b 3e 63 63 cc bd bf fe 63 3f fd 08 b2 3d
       0.16720854 -0.09979894 0.89060587 0.08693121
000080 b9 ca 37 bf 25 ba 9d be e4 8a bc bc 20 84 99 3c
       -0.71793705 -0.3080608 -0.023015447 0.01873976
000090 13 73 98 3f 9c 4d b6 be 54 86 3a bf ed 67 e1 3b
       1.1910118 -0.35606086 -0.7286122 0.006878844
0000a0 bb 62 c9 bd 99 53 3d bf f5 bb 67 bf d7 33 9c be
       -0.098332845 -0.73955685 -0.90521175 -0.305083
0000b0 16 a4 55 be 73 4a 39 3f 9d 07 db 3e 4a 72 93 3f
       -0.20863375 0.72379225 0.42779246 1.1519253
0000c0 33 61 0f 3f 11 f0 00 be 43 80 33 be 30 1b 0f 3f
       0.5600769 -0.12591578 -0.17529397 0.5590086
0000d0 40 5a 0c 3d ae da 4a bf 79 9d d0 3c a5 b9 70 3e
       0.034265757 -0.7923993 0.025465714 0.23508318
0000e0 97 27 0c 3d 2f e5 10 3f 05 72 01 3e e1 22 e6 3d
       0.034217443 0.56599706 0.12641151 0.112371214
0000f0 6d 3c 9f 3e 47 d9 82 bd dd 46 d1 3e 06 5a 39 bf
       0.3110079 -0.063890986 0.40874377 -0.7240299
000100 71 86 05 3e 5b 98 38 bd 80 4a 8b 3e d0 96 4f 3f
       0.13039567 -0.045067172 0.27205276 0.81089497
000110 99 21 8d 3e 8e 9d 12 3e 42 3c b1 be 49 18 f8 be
       0.27564695 0.14317915 -0.34616286 -0.48456028
000120 47 67 a1 bf 62 e6 9d be 08 c1 5e bd 65 b0 0c 3f
       -1.2609643 -0.3083983 -0.054383308 0.54956657
000130 1b 62 88 3f 77 ec b4 bf 1d 6c dd 3d 85 10 02 3d
       1.065494 -1.4134663 0.108116366 0.031754036
000140 80 90 15 bf 5b d4 d7 bd df f9 47 3f 01 91 a9 3e
       -0.58423615 -0.105385505 0.7811565 0.33118442
000150 e9 c0 ce bb d7 63 78 bd 62 b3 1e 3f 22 d6 c7 be
       -0.006309618 -0.06064209 0.61992466 -0.39030558
000160 22 e1 16 bf 85 3e 35 bd 17 74 f5 3e f0 4f 3d 3f
       -0.58937275 -0.044249076 0.47940132 0.739501
000170 d6 f6 b2 3f ee 17 44 3f 5e c0 aa 3c 31 2a 0a 3f
       1.3981578 0.76599014 0.020843681 0.5397063
000180 f2 93 af 3d 7d 6c e3 3f a1 cd 86 3e f6 4c 88 3c
       0.0857314 1.7767483 0.26328757 0.01663826
000190 15 b3 54 3f 11 0b b6 be 28 5c 78 3d 36 78 ea be
       0.8308576 -0.35555318 0.060634762 -0.4579484
0001a0 a3 79 0c be d3 6d 1a 3f 7f 15 27 3f 54 e8 07 40
       -0.13718276 0.6032383 0.65267175 2.1235552
0001b0 d8 f3 45 3f 5d 50 c0 bd 4e b6 6f be f4 be c3 bd
       0.773252 -0.09390328 -0.23409387 -0.09557906
0001c0 0a 0a df bf f2 0d 96 be e0 ed f7 bb 78 be 6f be
       -1.7424939 -0.29307514 -0.0075661987 -0.23412502
0001d0 53 6b b0 3e 93 11 46 3f 50 c5 ed 3d 17 81 3e 3e
       0.34456882 0.77370566 0.116099 0.18603931
0001e0 c5 3d bb 3e 57 95 0f bf 44 c8 6a bf cc 43 cc be
       0.36570564 -0.5608725 -0.9171183 -0.39895475
0001f0 c8 ab 0a be ce df 4f 3f 8d b3 33 3f f5 8d aa 3f
       -0.13542092 0.81200874 0.7019585 1.3324572
000200 e9 ef 0f 3f 94 e6 44 bc ec 3f 01 3f 6d 83 06 3f
       0.5622545 -0.012017865 0.5048816 0.5254429
000210 83 a7 86 3f 6f 66 c3 3e 35 c1 7a bd 04 94 2e 3f
       1.051987 0.38164088 -0.061219413 0.68194604
000220 08 a2 28 3e 63 be 44 bf af 5c d2 3e 76 27 dd bc
       0.1646806 -0.7685301 0.41086337 -0.026996356
000230 d2 3b d0 be c3 3b 52 3f 33 e7 7e bf 64 ce 81 bf
       -0.4067064 0.8212244 -0.9957153 -1.014111
000240 96 4e 93 3d 8a 88 6f 3f 96 86 ca 3e 11 a3 c7 3f
       0.071927235 0.9356772 0.39555806 1.5596639
000250 c4 4e 14 3f 60 af d3 3c 98 57 0d 3f 55 34 6d 3e
       0.57932687 0.025840461 0.5521178 0.23164494
000260 dc a1 e3 bf c3 61 a7 3b bc ee f7 3c dc 38 95 bd
       -1.778377 0.0051080897 0.030265205 -0.07286236
000270 3d 33 29 bf 7a 02 5c bf 66 07 88 3e 03 69 96 bd
       -0.6609381 -0.8594128 0.26568145 -0.07344248
000280 2d 67 e3 3f 30 dd 7b 3e dc ba 7e 3f 05 5c a4 3e
       1.7765862 0.24596095 0.99503875 0.32101455
000290 af c5 8f 3d 94 24 38 be 5b 17 e3 3d 43 02 82 bf
       0.07020127 -0.17982703 0.11088439 -1.015694
0002a0 98 9e e6 bd 5b ea 04 3c 4b dd 9d bd 26 03 ce bd
       -0.11260718 0.008112515 -0.07708224 -0.10059194
0002b0 6e dc 4e 3e 5f 88 7f be b1 a3 8c bd 54 37 0d be
       0.20201275 -0.24954365 -0.06867159 -0.13790637
0002c0 3e 84 08 bf e9 41 ea be c6 74 fa 3e 80 1d c7 bc
       -0.53326786 -0.4575341 0.48917216 -0.024306059
0002d0 45 d7 82 3e f1 e7 39 bd d1 f7 9c 3f 6e bf 24 3f
       0.25554863 -0.045387212 1.2263128 0.643546
0002e0 90 4b 9a bd 9f 43 16 be b1 69 82 3f 2f e3 8f 3f
       -0.07533944 -0.14674233 1.0188504 1.1241206
0002f0 5a 54 6a 3f d6 c6 ac bb 4a 69 2c 3f b6 1e 6c 3d
       0.9153496 -0.0052727265 0.6734816 0.057646476
000300 19 64 e9 3e 9d b8 90 be a5 b6 55 3e c0 8b 28 bf
       0.4558418 -0.2826585 0.20870455 -0.6583824
000310 e0 f5 07 bf d7 f1 ab bf fd 8d dd be 70 05 b2 3b
       -0.5310955 -1.3433179 -0.4327239 0.005432777
000320 a4 66 c4 be de 04 87 3e 65 2a 48 bf c4 c1 18 bf
       -0.3835956 0.263709 -0.7818969 -0.5967066
000330 b4 d7 33 3c de 17 c5 3e 81 8d d1 be 96 0a 30 3f
       0.010976721 0.38494772 -0.4092827 0.6876615
000340 77 ab ff 3e 0d f2 88 3b 7a 48 38 bf 55 6b 61 bf
       0.49935505 0.0041792453 -0.7198559 -0.880544
000350 1f 77 b0 3d 14 b3 7d bf ba 83 97 bc de cb bb be
       0.086164705 -0.99101377 -0.01849543 -0.36678976
000360 5c 88 dc bc de 28 75 3f 85 74 f0 3c 08 cb 46 3e
       -0.02692049 0.95765483 0.029352436 0.19413388
000370 74 66 db 3d 88 d8 64 bd 48 93 cd bf 53 35 03 bd
       0.10712901 -0.055870563 -1.6060572 -0.032033276
000380 d8 8a 56 3c 47 81 97 3e 06 10 42 bf 37 71 5b bf
       0.013094626 0.29590818 -0.758057 -0.8571963
000390 33 e5 f5 3e be 6e 9b 3b ca 5b 1d 3e 5f dc 77 3f
       0.48026428 0.004743426 0.15367046 0.96820635
0003a0 ec c2 0c 40 0f e7 a9 3d 8f d7 07 bd 19 51 3a bf
       2.199397 0.08296024 -0.033164557 -0.72779995
0003b0 90 27 4e 3f 7b 47 15 3f 56 c2 60 be 85 76 a4 3c
       0.8052912 0.58312196 -0.21949133 0.020076046
0003c0 5a 7b 6a 3e 28 35 08 bf 6e a7 dc bf 77 7c 56 bf
       0.22898617 -0.5320611 -1.7238595 -0.8378367
0003d0 5f c9 b6 3c 8c 9d 8e bd c8 15 7f be 1b a1 5c be
       0.022312818 -0.069636434 -0.24910653 -0.21545832
0003e0 cf e1 f4 be f0 58 0d 3e d8 50 94 bd 06 45 6f 3e
       -0.47828528 0.13803458 -0.07241982 0.23366174
0003f0 e0 e2 b6 3f 84 fe f2 3e a3 76 50 bb 2e ad 1c be
       1.4287987 0.47459805 -0.0031808994 -0.15300438

net.0.bias f4 [256]
000000 01 ea b1 bf 8a 42 3c bf 41 b2 f3 3e 31 aa 30 bf
       -1.3899537 -0.7353903 0.47596934 -0.6900969
000010 e6 db 93 bf e9 5e 8b bf c1 2e 5c 3e 96 4e 97 3e
       -1.1551483 -1.0888339 0.2150221 0.29552144
000020 3b 82 9e bd c3 a8 0b bf ab 50 9e 3e b5 5f c4 3e
       -0.07739683 -0.54554385 0.3092092 0.3835427
000030 01 38 90 3e ff 30 1d 3f 4e 7b 05 3f b7 d3 d3 3e
       0.28167728 0.6140289 0.52141273 0.41372463
000040 43 70 bd bf d1 6f 19 bf a4 72 68 3d 4c dc 91 bf
       -1.4799885 -0.59936243 0.056749955 -1.1395354
000050 0f 7e 81 bf d2 34 4a bf 43 3c da 3e 3c e4 c8 3e
       -1.0116595 -0.7898685 0.426241 0.3923663
000060 93 b8 95 be d6 17 e3 3e a1 82 8d bf 12 a5 35 3f
       -0.2924238 0.44354123 -1.105549 0.70955
000070 88 c6 9c 3e eb bc 03 be e0 cf 1c bf e6 1f db 3e
       0.30620217 -0.12865035 -0.6125469 0.42797774
000080 90 c1 70 3d 71 81 5e bf 2b 3c d1 be c9 74 94 3e
       0.058778346 -0.8691626 -0.40866217 0.2899535
000090 ef 58 2a 3f d4 b7 25 bf f6 25 88 be f4 e6 b6 bf
       0.6654195 -0.64733624 -0.26591462 -1.4289231
0000a0 b7 64 d3 3e 55 05 27 3f 0e 93 3a 3e ef 99 f7 3e
       0.41287777 0.6524251 0.1822016 0.4835963
0000b0 60 37 91 3e 07 9a de 3e 49 d4 64 bd 83 dc 5a 3e
       0.2836256 0.4347689 -0.055866513 0.21373181
0000c0 ec d4 2a 3f c0 d6 6c bf db e0 75 bf d7 21 f3 3e
       0.66731143 -0.9251518 -0.9604623 0.47486755
0000d0 3f 9b db 3e 3a 9d 80 bf b1 c8 15 3f cf 5a 34 3f
       0.4289188 -1.0047982 0.58509356 0.7045106
0000e0 91 ca 3e be f2 78 87 bc 93 f4 56 be 81 30 69 3f
       -0.1863196 -0.016537163 -0.20991735 0.91089636
0000f0 14 d5 2b 3f b0 3e 79 bf 5d 5b 2c 3f 8d 97 27 3d
       0.67122006 -0.9736128 0.6732691 0.040916014
000100 61 e4 10 3e db ae a0 3d db 51 b6 3e 05 27 00 3f
       0.1414962 0.07845851 0.35609326 0.5005954
000110 75 cf 6f bf 22 12 2d 3e d1 b2 a5 3e 6c 13 e5 3e
       -0.9367593 0.16901448 0.3236299 0.4474138
000120 a3 ee 35 3f 4a c3 01 3f 2a 9d 4e 3e e5 85 16 bf
       0.71067256 0.5068861 0.20177141 -0.58798057
000130 e7 2f d8 3e 97 70 ed be a5 a5 67 bf 05 b5 73 bf
       0.42224047 -0.46374962 -0.9048713 -0.9519809
000140 c2 18 75 bd 27 1c d5 be 00 b9 41 bd 6c d4 49 3d
       -0.059838064 -0.4162304 -0.04729557 0.049274847
000150 a9 3d 33 be 21 1d 82 be 1e 15 87 bf 99 9d 04 bf
       -0.1750399 -0.2541285 -1.055332 -0.51802975
000160 80 5f 42 be f6 f1 9f be a8 80 8a bf f0 d3 a4 3e
       -0.18981743 -0.3123929 -1.0820513 0.32192945
000170 f7 bb cb 3e b3 c9 dd 3e 67 f6 ab 3e f2 fe 81 3e
       0.39791843 0.43317947 0.33586428 0.2538982
000180 cb bd ff 3d e5 cb 23 bf ae b9 38 be d5 99 14 bf
       0.12487372 -0.63982993 -0.18039581 -0.5804723
000190 1d 25 93 3c 0b 18 9e be f7 82 84 be bf dc 08 bf
       0.017962033 -0.30877718 -0.25881168 -0.5346183
0001a0 6c 9c da 3e 7c 44 54 bf 6c ef 2a bf 7e c6 4b bd
       0.42697465 -0.82917 -0.6677158 -0.049749844
0001b0 61 c6 30 3e 71 80 35 3e 0e 40 16 3f 5b cb 46 bf
       0.17263176 0.17724778 0.5869149 -0.77654046
0001c0 47 fe 9b be 22 d9 e5 3d 03 a2 bd 3e 36 20 46 bf
       -0.30467436 0.112230554 0.37037668 -0.773929
0001d0 a1 98 ca 3e b6 6c 96 be 55 97 39 bf 7e af 0a 3f
       0.39569572 -0.29379815 -0.7249654 0.5417403
0001e0 dc 02 88 bf 7d b3 16 3f 77 87 5e 3e fb a4 ce bd
       -1.0625873 0.5886763 0.21731363 -0.10090061
0001f0 fa a0 46 bd 9d f6 83 bf 48 66 09 3f d0 eb 6b 3e
       -0.048493363 -1.0309635 0.53671694 0.23039174
000200 b0 4e 05 be b6 9f 35 3f 63 f6 a3 3e 15 01 fd 3e
       -0.13018298 0.70946825 0.32023916 0.49414888
000210 69 92 87 bf 76 a8 14 bf c4 31 ed be 1c 15 40 be
       -1.0591556 -0.5806955 -0.4632703 -0.18758053
000220 e6 28 78 be 09 40 9d 3e a3 66 19 3e c8 6a 05 be
       -0.24234352 0.30712917 0.14980559 -0.13029015
000230 e7 44 c4 bf 4d 13 3b 3f cf fe 95 3d fe f8 a8 be
       -1.5333527 0.73076326 0.073239915 -0.33002466
000240 a6 dd 46 3e a8 9e df bd 53 db 40 bf 59 7b d5 bb
       0.1942049 -0.10918933 -0.7533466 -0.0065149483
000250 dd ab e1 be af 72 06 3f d3 3f 21 3f 86 04 a9 be
       -0.44076434 0.52518743 0.62988013 -0.33011264
000260 12 7d 9b bd 63 1a 34 3f c6 b0 ce be 60 3d 1b bf
       -0.07592215 0.7035276 -0.40369242 -0.60640526
000270 95 22 39 bf 56 bc 93 be d1 4e 96 bf f8 ae 6b bf
       -0.72318393 -0.28854626 -1.1742803 -0.92063856
000280 7c c5 3a 3f 4d 00 2d 3f ea 07 8b bc 70 67 8a bf
       0.7295759 0.67578584 -0.016971547 -1.0812817
000290 d0 4a bd 3d 06 60 ea 3e db 8e d6 be 81 6b 15 bf
       0.09242785 0.45776385 -0.41905865 -0.5836716
0002a0 5f 30 35 3f 54 24 58 bf 00 c5 22 be d1 55 c8 3e
       0.70776933 -0.8443043 -0.15895462 0.39127973
0002b0 60 22 d2 bd a9 ef 1f bf b6 1e 15 be 8a 8d 59 be
       -0.10260463 -0.6247507 -0.14562497 -0.21245399
0002c0 d0 45 63 bf 3d 44 38 bf 06 b1 1b be 7e 60 7d 3d
       -0.887784 -0.71979123 -0.15204248 0.0618596
0002d0 63 71 93 3e 9e 89 bf 3e 1b 0f 5d bf ef 0c 8c bc
       0.28797445 0.3740968 -0.86351174 -0.017096011
0002e0 d8 c6 92 bf 80 5e ed 3d 69 71 55 3d 66 18 c2 3e
       -1.1466932 0.1159029 0.05211011 0.3790924
0002f0 ca 33 03 3f d3 60 2f bf 28 d2 1e 3f d3 71 17 3f
       0.512509 -0.6850712 0.62039423 0.59158057
000300 f2 13 c5 3d a5 0f cd 3e 4a 24 1e 3e 93 5b d5 3e
       0.09622945 0.40050998 0.1544353 0.41671428
000310 3c 3f 02 3f 65 c4 1a bf d8 40 29 bf c4 af 21 3f
       0.5087774 -0.60455924 -0.6611457 0.6315882
000320 65 4f fa be 25 31 84 3e 59 16 63 bf a2 1a b7 be
       -0.48888698 0.25818744 -0.88705975 -0.35762507
000330 90 81 89 be 4c 66 bd 3d 0c 8a 3e bf 14 a8 30 bf
       -0.2685666 0.09248027 -0.7442939 -0.69006467
000340 69 fd 60 3e 94 80 b8 3e c5 27 78 bf af bf 23 bf
       0.21971668 0.36035597 -0.96935683 -0.6396436
000350 50 50 4a bf f5 21 ae bf 9a 45 69 3e 1d ca f2 be
       -0.790288 -1.3604113 0.22780457 -0.47419825
000360 81 01 0f 3f 5e 7b c7 3e 75 e4 d9 3e 67 04 2a be
       0.5586167 0.3896131 0.4255711 -0.16603242
000370 5a ed e5 be 0b 64 ef 3d e0 5c b4 bf 5c bb ef 3e
       -0.44907647 0.116890036 -1.4090843 0.4682263
000380 72 a9 1d bf 4d 9d 06 3f 4e f6 03 bf 16 39 96 bf
       -0.6158668 0.5258377 -0.51547706 -1.1736171
000390 46 10 f5 3e 1c 3d 92 bd 2e 98 8e 3e 68 61 6e be
       0.47863978 -0.07140562 0.2785048 -0.23279345
0003a0 4a 1d c6 3d 14 4a d6 be 74 c2 13 3f d7 4b 26 be
       0.09673555 -0.41853392 0.57718587 -0.16239868
0003b0 4c 31 21 bf 45 ed 02 3f 1f 2c fa 3e 6c 13 09 3f
       -0.62965846 0.51143295 0.48861787 0.5354526
0003c0 83 6a 46 3d db 2f 8e be b2 54 2d 3f e7 7a 82 3e
       0.04844142 -0.27770886 0.6770736 0.25484392
0003d0 a1 5b 86 be 91 de e4 3e 97 2f 2e 3f ec 58 36 3f
       -0.26241782 0.44701055 0.68041366 0.71229434
0003e0 89 cf c9 3d 74 57 52 bf af c5 ed 3e 57 44 80 bf
       0.09854037 -0.8216469 0.46439883 -1.0020856
0003f0 b6 f2 f7 3e 9d ab ff 3d 5f ae ab be e2 97 d6 be
       0.4842736 0.124839045 -0.33531472 -0.41912752

net.2.weight f4 [256, 256]
000000 a9 af a4 bf 6f b8 67 bc 06 80 8f bd a1 e1 e6 bf
       -1.2866107 -0.0141430935 -0.070068404 -1.8037606
000010 6b 17 2d bf e9 21 b3 be 08 12 a9 bd 41 c1 34 3e
       -0.6761386 -0.3498681 -0.08255392 0.17651846
000020 97 00 fe 3c 9a eb 7d be a6 c9 07 3d b6 cd dc 3e
       0.03100614 -0.24796906 0.03315129 0.43125695
000030 64 a7 04 3f ed 8f d0 3e 4f 2e 13 3e 4d e3 1c bf
       0.5181792 0.40734807 0.14373134 -0.61284333
000040 df 18 e7 bf 59 79 32 be 7a be 02 be 28 5b 0b c0
       -1.8054465 -0.17429103 -0.12767974 -2.1774387
000050 e3 9f 83 bd f5 37 36 bf a8 f3 10 bc 82 0d 04 3f
       -0.0642698 -0.71179134 -0.008847155 0.5158311
000060 b8 7c 8f 3a 24 eb 81 bc b6 43 5e bf ab 5f 47 3e
       0.0010947203 -0.015859194 -0.8682207 0.19470088
000070 fe 86 7d 3e 12 2b 3e 3e 86 3f e1 be 4d 86 37 3e
       0.24758527 0.18571118 -0.43993777 0.17922325
000080 29 42 10 bf 5d 09 1e bf 03 4f 18 3e 68 0d 9f 3e
       -0.5635095 -0.6173304 0.1487389 0.31064916
000090 f9 ba aa 3e d2 cd af bf c2 12 f1 3e a2 22 a1 bf
       0.33345774 -1.3734686 0.47084624 -1.2588694
0000a0 88 44 7b 3e c9 ef 87 3e 14 4e ab 3d 3d b4 77 3e
       0.24537861 0.2655013 0.083645016 0.24189849
0000b0 08 ad a9 3e e1 c7 82 3e fa 21 5b bb f7 80 e7 bd
       0.33139825 0.2554312 -0.0033437 -0.11303895
0000c0 65 61 b0 3e de bb 5a ba 51 a2 8e c0 a2 d3 c1 3e
       0.34449306 -0.00083440344 -4.457314 0.37856776
0000d0 75 43 4b 3e 56 95 10 c0 01 d0 43 3e 1a 12 94 3e
       0.19849952 -2.2591147 0.19122316 0.2892006
0000e0 1f 88 be be 7e e6 81 bf eb 5b 6d be 0c cc 21 3e
       -0.37213227 -1.0148466 -0.23179595 0.15800494
0000f0 d1 fa b5 3e 37 ee 7b c0 95 0f 9a 3e c5 12 33 3e
       0.3554292 -3.9364145 0.30090013 0.17487629
000100 a1 ca 75 bc e4 85 f3 3d 5e cc 51 3e 2f 2c 49 3e
       -0.015001924 0.11890772 0.20488116 0.19645761
000110 a1 04 87 bf b7 65 54 3d e1 42 8f 3e a6 c6 00 be
       -1.0548288 0.051854815 0.27980712 -0.12575778
000120 6e 52 93 3e b3 0e 5d bd bb 7f a2 3e 40 58 c4 3f
       0.28773826 -0.053969096 0.31738076 1.5339432
000130 b4 f6 4b 3e c6 a0 a2 be d7 19 f9 be 49 13 64 c0
       0.19918329 -0.31763285 -0.48652527 -3.563677
000140 bb d9 9f 3e 1c 21 f1 3b c9 68 eb 3c 0f 30 50 3e
       0.31220803 0.0073586833 0.028736489 0.20330833
000150 9f 46 87 be cc 12 ad 3e 9f 78 c2 3f ce 30 63 3e
       -0.26421067 0.33803403 1.5193061 0.22186586
000160 f4 05 5f be 0b be 72 bf 7d 37 05 bf 1d 45 b3 3d
       -0.21779615 -0.9482123 -0.52037793 0.08753417
000170 f7 87 ff 3e 33 16 c2 3e 46 69 b7 3e cb 9a a9 be
       0.4990842 0.37907562 0.35822505 -0.3312591
000180 0b 53 37 3e e9 52 0f c1 39 23 aa be 7b 07 8f bf
       0.17902772 -8.957742 -0.33229998 -1.1174158
000190 b8 a2 05 bc b2 f8 c4 bf e2 27 e9 bd cf d1 46 c0
       -0.008156471 -1.5388396 -0.1138456 -3.1065557
0001a0 20 c6 85 3e 07 f4 b8 c0 b5 cc c5 bf 49 1f f2 be
       0.2612772 -5.7797885 -1.5453097 -0.47289494
0001b0 be 19 d6 bd 35 1e 53 bf 91 56 45 3e e6 7d 33 40
       -0.10454129 -0.8246797 0.19271304 2.8045592
0001c0 cb 8e b4 bf 17 24 b0 bd aa 0b 2f be e2 9a 25 bf
       -1.4106077 -0.086006336 -0.17094293 -0.6468946
0001d0 9c 61 99 3e c9 b4 49 be f4 f3 b0 bf 33 52 35 3e
       0.29957283 -0.1969787 -1.3824449 0.17707138
0001e0 9f 08 91 be 01 4c 30 be 6e 15 24 3e 97 52 2f be
       -0.2832689 -0.17216493 0.160238 -0.1712135
0001f0 bf ee cf bd b2 09 b7 c0 c6 0f e7 3d 40 98 ee 3b
       -0.10152959 -5.7199335 0.112823054 0.007281333
000200 e7 93 2d 3e fe e2 a9 3e 1d 24 cd 3e 1f ed 8c bd
       0.16950952 0.33180994 0.40066615 -0.06881165
000210 59 b1 e0 be 20 8f 60 bd 58 4e 22 3e 15 e5 35 3f
       -0.43885306 -0.054823995 0.15850198 0.71052676
000220 31 84 b1 c0 84 16 57 3e c1 0e 87 3e ff c0 bc 3e
       -5.5473866 0.21004683 0.26378444 0.36865994
000230 40 77 88 bf ef 62 c1 3e 5f b2 b6 3e e1 8d d6 be
       -1.0661392 0.37770793 0.3568296 -0.4190512
000240 4f 0b c8 be a7 0c 46 3e 7b b6 48 bf a8 96 20 3d
       -0.39071128 0.19340764 -0.78403443 0.039206177
000250 e4 71 ce 3e 11 a1 da 3e 4c 49 10 3e 6b 93 d9 3d
       0.40321267 0.4270101 0.1409046 0.10623821
000260 23 41 28 3e 30 52 84 3e 61 16 32 3e b4 97 7d 3c
       0.16431098 0.25843954 0.1739135 0.015478063
000270 0f 40 47 3e 7e 72 aa bf 73 63 3f 40 56 91 51 c0
       0.1945803 -1.331619 2.990445 -3.2744956
000280 54 dc b1 3e 4b 3c 51 3e ae 8a d6 3c 14 44 42 c0
       0.3473841 0.20433156 0.026189175 -3.0354052
000290 7c 29 b2 3d 5e d9 a6 bc 54 72 14 bf ce 3f 34 bf
       0.08699319 -0.02036732 -0.5798695 -0.7040986
0002a0 bd 5b 7c 3e 10 fd 34 c0 22 93 1e 3e d0 d0 4b 3e
       0.2464437 -2.8279457 0.15485814 0.19903874
0002b0 9d 17 0b 3c 36 9b 1e 3e 26 85 ec bb a1 cb 4f be
       0.008489517 0.15488896 -0.007218021 -0.20292522
0002c0 f1 30 cc be d0 de d1 bd 70 47 ad 3d c2 aa e5 3e
       -0.3988109 -0.10247576 0.08460891 0.4485684
0002d0 47 3a 1d 3f 06 34 9a be 6b 33 90 bf d8 e0 87 be
       0.6141705 -0.30117816 -1.1265692 -0.2653873
0002e0 35 0d 54 bf fa d6 a3 3e f7 04 82 be c0 05 a6 3e
       -0.8283265 0.31999952 -0.25394413 0.32426262
0002f0 1a c9 80 be cf f7 03 c0 23 14 d1 3e 72 34 0f 3e
       -0.25153428 -2.062 0.40835676 0.1398485
000300 aa 23 17 bd 30 23 5d 3e 9b 95 c4 bf 1d 48 e7 3e
       -0.036899246 0.21595454 -1.5358156 0.45172206
000310 64 04 08 be 92 bd f3 3f 00 68 68 c0 3d 29 77 3e
       -0.13282925 1.9042227 -3.6313477 0.24136825
000320 9d 40 3f c0 75 31 af 3d 4c 89 a0 3f ed 01 1d bf
       -2.9883187 0.08554355 1.25419 -0.61331064
000330 17 6b 4b be ff 40 d3 3e a7 e8 4f bf b6 c0 1c bf
       -0.1986507 0.41260526 -0.81214374 -0.61231554
000340 62 34 a3 3e 32 12 86 3e 15 b8 7b be 36 ec a8 be
       0.31875902 0.26185757 -0.2458194 -0.32992715
000350 4d 23 0a 3e 14 62 5e bf af e3 69 3e 0a 02 47 c0
       0.13490029 -0.86868405 0.2284076 -3.1094995
000360 a5 4e b5 3e 9b 5b 5a 3e fb 76 83 3e ef 44 d3 3a
       0.35411564 0.21324007 0.25676712 0.0016118566
000370 18 d1 ec bd 25 2e dd 3e 73 e7 e1 bf b2 ec e1 3e
       -0.11563319 0.43199268 -1.7648758 0.44125897
000380 a1 79 72 3c 04 45 f6 3d 5c b8 16 c0 f6 31 9e be
       0.014799506 0.120248824 -2.3550024 -0.30897492
000390 9c cb 9f 3e cd 0e bc bf ee 66 ae 3e 75 0a e5 bd
       0.3121003 -1.4692017 0.34062904 -0.11183635
0003a0 37 f4 32 3e 77 60 bd be bc e3 9e bd 63 1f 88 bb
       0.17475973 -0.3698766 -0.07758281 -0.004154132
0003b0 4d 01 68 c0 c1 8b a0 3e 9d b8 43 3e d3 a3 3b 3e
       -3.6250794 0.31356624 0.19113393 0.18324213
0003c0 c5 9c 16 3e 24 78 c0 3e f3 e4 f7 bb 0a 5e a3 3c
       0.1470824 0.3759166 -0.0075651347 0.019942302
0003d0 f8 e1 fd be 16 0d 52 3e 99 a6 e2 bd 41 c6 ee 3d
       -0.49586463 0.20512804 -0.11066932 0.11658908
0003e0 ca 7b f5 bd cf be c0 c0 b1 fb 97 3d ae 1d 72 be
       -0.119865015 -6.023292 0.07421053 -0.23644134
0003f0 56 a7 3e 3e e6 46 a8 3d 64 23 a0 3e be 6f 09 3e
       0.18618521 0.08216648 0.31277 0.13421533

net.2.bias f4 [256]
000000 02 62 54 3e 5e cf 5d 3e b0 76 78 bd 73 9e 86 bd
       0.20740512 0.21661136 -0.060660064 -0.065731905
000010 55 a7 b9 3e 83 82 90 3e 22 94 ff be 56 ce 33 bf
       0.36260477 0.28224573 -0.49917704 -0.7023672
000020 c8 09 80 bc bd 84 87 bc 2e d2 45 3e 92 9d 9c 3e
       -0.015629664 -0.016542787 0.19318458 0.30588967
000030 e3 f9 70 3e a7 10 1e 3b c8 4f 43 3d f5 6b 24 3d
       0.23532824 0.0024118812 0.047683507 0.04014202
000040 73 af 69 3e 8d 82 12 3e a1 ca b3 3c ae ca a4 bd
       0.22820835 0.14307614 0.021947207 -0.080464706
000050 82 23 86 3e 07 f9 c2 3e 85 1b 16 3e a9 47 96 3e
       0.26198965 0.38080618 0.14658935 0.29351547
000060 d9 a4 ad be c0 0f a0 3e ca 6b 34 bd 3a af 07 bc
       -0.3391483 0.31262016 -0.04404811 -0.008281523
000070 9a f5 52 3e 0f 1c e9 3a 47 2e 9d 3e 15 e5 14 3e
       0.20601502 0.0017784851 0.3069937 0.14540513
000080 79 ae b4 bd a0 ad 88 be e6 c7 40 3c cf 7a 4c bd
       -0.088223405 -0.26694965 0.0117664095 -0.049921807
000090 91 2d 11 bc 3a ec 8d 3e 16 b6 19 3d 22 a2 99 3e
       -0.0088609615 0.2771929 0.037527166 0.3000651
0000a0 bc 9f 17 bd c7 fc a3 bc 14 2a 59 bd cc 11 85 bd
       -0.03701757 -0.020017995 -0.053018644 -0.06497535
0000b0 4e 9f 60 3d e6 c7 41 bd ac ea 31 3e c2 04 17 3d
       0.054839425 -0.04730978 0.17374676 0.03686977
0000c0 28 c9 7d 3e 28 2f e5 3d c0 7d 0f bc fe 29 69 3e
       0.24783766 0.11190635 -0.0087580085 0.22769925
0000d0 0f 94 d5 3b 84 ab 89 3e 1b 72 a1 3e 85 7f ff 3d
       0.006517894 0.2688867 0.31532368 0.12475494
0000e0 1a c3 55 be 00 53 b9 bd a2 58 61 3e a3 86 fe 3d
       -0.20875207 -0.09049034 0.22006467 0.12428024
0000f0 77 29 8c bd 83 6e 75 3e 77 06 2f 3c e1 48 39 bc
       -0.06843846 0.23967938 0.010682694 -0.01130888
000100 f8 32 ab 3e 61 78 28 bd 05 9b e6 be 7d 64 8d bd
       0.33437324 -0.041130427 -0.45040146 -0.06903932
000110 12 0d bd be f7 56 93 3e fc bb ec 3d 3a 74 71 3e
       -0.36924034 0.28777286 0.11559293 0.23579493
000120 76 a7 77 3e 65 4d 09 bd 30 84 53 3c f8 8b 19 bd
       0.24184975 -0.033521075 0.012909934 -0.037487
000130 6d 14 14 be e3 74 07 3d a7 00 e5 3d 3e a2 34 3e
       -0.14460917 0.033070456 0.11181765 0.17640015
000140 4f 72 45 3d 20 ed 06 bb 65 e2 ba 3c 27 5d 40 3e
       0.048204716 -0.0020588115 0.022813031 0.18785535
000150 79 f8 e1 bc b9 08 93 bc 47 c5 4c 3c 1b 39 17 bd
       -0.027584301 -0.017948495 0.012498206 -0.036919694
000160 9c 08 9b 3e c4 43 78 3c c7 12 5e 3e a6 77 30 3e
       0.30280006 0.015152875 0.2168685 0.17233142
000170 6a 8d 82 3e d1 5e 49 3e 4c 31 01 3d 4c 86 95 3e
       0.25498515 0.19665076 0.031541154 0.29204023
000180 d1 7b 9b 3e a2 f2 93 bd 2c a4 9b be 71 9c 93 3e
       0.30367902 -0.07224013 -0.3039869 0.28830293
000190 d7 d9 e1 bc 04 a5 5b 3e a0 d1 88 3e 24 41 66 bd
       -0.027569694 0.21449667 0.2672243 -0.056214467
0001a0 01 3a 8d 3e 84 4b 7e 3e 64 29 08 3e 35 47 7f bd
       0.27583316 0.24833494 0.1329704 -0.062323768
0001b0 09 ef b9 bb aa 5b 70 be 59 f2 25 3e 4b 18 fa bc
       -0.005674247 -0.23472467 0.1620573 -0.030529162
0001c0 5a 13 3c bd 20 ed 78 3e 91 95 87 bd 3d 19 8d 3b
       -0.045916893 0.24309206 -0.066203244 0.004305987
0001d0 6f 09 47 3e 9b bc 69 3e 15 77 8f bc 09 ce 32 3b
       0.19437192 0.22825854 -0.017512837 0.002728345
0001e0 1b b8 3a 3e 57 bd e5 be 6f da 5f bd 47 a7 9d 3e
       0.18234293 -0.44871017 -0.054651674 0.30791685
0001f0 0e 2d 9b 3e 28 13 f5 3c 06 79 32 3e dc 56 a9 bd
       0.30307811 0.029916361 0.1742898 -0.0826852
000200 0b 18 52 3d 69 a8 b9 be 4f 1d 64 3c c5 86 55 bd
       0.05129246 -0.362613 0.013923003 -0.05213048
000210 4d ea 1b bf e3 f5 5f 3c c8 e5 b7 3e fb f5 54 3e
       -0.6090439 0.013669464 0.35917497 0.20796959
000220 8e d8 82 3e e3 b4 4d 3d 5a 85 7d bd a3 7b 72 be
       0.25555843 0.050221335 -0.061894752 -0.23679976
000230 d3 4d 81 bc ee 2f 69 3e 90 3f 87 3e 8e cd a9 3e
       -0.01578418 0.2277219 0.26415682 0.33164638
000240 5a da 0a 3e 0f 48 92 bd d8 bf 95 3e 08 cb 2f bd
       0.13559857 -0.0714265 0.29247928 -0.042918235
000250 4a 69 53 3e a5 e9 94 3e 69 81 e7 be 95 2f 7d 3e
       0.20645633 0.29084507 -0.4521592 0.24725182
000260 42 df 69 bd a6 57 11 3d be 21 5e 3e 85 fd 1d bd
       -0.05709768 0.03548398 0.21692559 -0.038571853
000270 4c ec df bc 48 9b cc 3c 8a 27 c1 3e 3c 91 b7 bc
       -0.027334355 0.024976388 0.37725478 -0.02240812
000280 5c fb 7d 3e d3 14 f8 be d3 ed a7 bb 2a 2f d4 bd
       0.24802917 -0.48453388 -0.0051247864 -0.10360558
000290 0d ea ce 3c 69 9c 8e 3e 2f 42 3a bd e1 65 9d bc
       0.025258088 0.27853706 -0.045473274 -0.019213619
0002a0 d8 80 b1 bd 32 78 87 3e 2b 78 5d bd 6c 46 b3 3e
       -0.08667153 0.2645889 -0.05406968 0.35014665
0002b0 9b 35 41 3e 30 7d 12 3e e2 9b 84 3e b1 ab 57 3d
       0.18868105 0.14305568 0.2590018 0.052653972
0002c0 dd 99 30 bd 1e 81 63 3e b5 fe 93 bd 96 ae 22 bd
       -0.043115485 0.22217223 -0.07226316 -0.03971728
0002d0 0f 9a 39 bf 70 84 93 3d 7f 1b 79 3c 75 1f 82 3c
       -0.725007 0.07202995 0.0152043095 0.01588414
0002e0 ee 63 a2 3e 45 44 6a 3e 7d 64 96 3e 77 0a de 3c
       0.31716865 0.22877605 0.2937354 0.0271046
0002f0 35 4e 9d bd a6 d8 3a be 36 64 9d 3e 47 c8 e4 bc
       -0.076809324 -0.18246707 0.30740517 -0.02792753
000300 f0 68 ea b9 f5 3a 50 3b ba a9 58 3b 3e 99 e6 bc
       -0.00044710143 0.0031773422 0.003306015 -0.028149243
000310 b1 f2 89 bd 9b ab a0 bc 7c 2e 91 3e f4 63 7b 3e
       -0.06735743 -0.019613078 0.28355777 0.24549848
000320 f7 44 c1 bc 25 17 a6 3e fa f6 62 3e c6 fa 39 3e
       -0.023592455 0.32439533 0.22164527 0.18162069
000330 29 ec 84 3e 42 6f a9 bd 80 a2 0d bc 68 24 ca 3e
       0.25961426 -0.08273174 -0.0086447 0.394809
000340 97 cd a8 3c 70 8e 9d bd 85 58 a3 3e dd dc e5 3d
       0.020605845 -0.076931834 0.31903473 0.11223767
000350 8b 58 3b 3e 5c 6e 83 bd 8f 58 87 3e 73 ac 12 3e
       0.18295495 -0.06417534 0.26434752 0.14323597
000360 8c 4a 8c 3e e6 f7 4b 3d 06 4f 8a bd f1 22 02 bc
       0.27400625 0.04979696 -0.06753354 -0.007942901
000370 80 a3 d1 3d 6f fa 62 3e f8 aa 8d bd c3 8b 61 bc
       0.10236263 0.22165845 -0.06917375 -0.013766232
000380 80 7f a7 3e 60 02 59 3e 51 c3 27 3e b0 ac 1c be
       0.32714462 0.21192312 0.16383101 -0.1530025
000390 30 09 bb 3e 23 34 76 bd 6a 91 9c 3c 8e d1 3e bd
       0.36530447 -0.060108315 0.019112308 -0.046586566
0003a0 fa 73 04 3e f7 0b 32 3b a3 7e aa 3e 94 bd 53 3e
       0.12934867 0.0027167776 0.3329974 0.20677787
0003b0 cd 5e 20 bf da 28 cc 3e 45 72 5b bd 13 10 e6 bc
       -0.62644655 0.39874917 -0.053575773 -0.028083837
0003c0 48 30 3a 3e 0a a1 3d 3e 2d fb 5c 3e c7 ff 23 bd
       0.1818248 0.18518463 0.21580191 -0.04003885
0003d0 4b a0 c2 be 02 b7 09 3e be f2 a2 3d d2 c3 35 bb
       -0.3801292 0.13448718 0.07956456 -0.0027735126
0003e0 27 fe 17 3e 12 c8 83 bc 03 6a 4e be b9 03 2e 3e
       0.14843045 -0.016086612 -0.20157628 0.16993608
0003f0 a6 7b 3a 3d 09 e6 80 3e 24 d7 a0 bc a3 a6 53 3c
       0.045528077 0.25175503 -0.019633837 0.012918147

net.4.weight f4 [2, 256]
000000 3c 37 a0 3d 67 1f 53 3f 55 36 71 bb 6c 6b d0 3b
       0.07823035 0.8246979 -0.0036806066 0.006360462
000010 d0 b7 5a 3f a2 40 73 3f 04 92 a9 bf 88 0f 81 bf
       0.85436726 0.95020497 -1.3247685 -1.0082865
000020 1d df 77 c0 d6 e4 92 bc ab 16 97 3f 05 5b f9 3e
       -3.8729928 -0.017931383 1.1803793 0.48702255
000030 ed 75 0e 3f 66 e2 47 3d 4a a1 04 bf 9d 43 f3 be
       0.5564869 0.048799895 -0.5180861 -0.47512522
000040 14 37 9d 3f e8 a4 6b bf f0 90 93 bc 35 62 98 bb
       1.2282434 -0.920485 -0.018013448 -0.004650379
000050 09 47 24 3f 88 88 15 3f a5 24 11 3f 7b 14 61 3f
       0.6417089 0.58411455 0.5669654 0.87921876
000060 99 79 81 bf 9a 67 31 3f 32 17 06 bd 0a 4a f9 bc
       -1.0115234 0.6929871 -0.032736965 -0.030430812
000070 de 34 75 3f d5 94 f3 bb 69 64 ab 3f 27 1a 47 3f
       0.95783794 -0.0074335136 1.3390018 0.7777428
000080 b4 80 9a 3b cb 8a 4a bd 24 7c 72 3c e7 30 4f bd
       0.0047150496 -0.04944877 0.014800105 -0.050583746
000090 c4 b1 37 3c e2 7b 2c 3e 8d c3 e4 3b 77 bc 60 3f
       0.011211816 0.16844133 0.0069813193 0.87787575
0000a0 b7 79 c8 3c a9 f3 c9 be fb 6e 68 3d 7d 0a b7 bc
       0.0244721 -0.3944371 0.056746464 -0.022343868
0000b0 f4 06 5a c0 a5 a7 5c bb e3 4d 80 3f f2 51 ad bc
       -3.4066744 -0.003366926 1.0023769 -0.021157239
0000c0 24 6f a4 3e d0 8d 4e 3f 7e 81 29 3c ab d8 89 3f
       0.32116044 0.8068514 0.010345815 1.0769247
0000d0 02 6a d0 bc da 30 48 3f 6b b6 8d 3f ed d8 21 3d
       -0.025441173 0.7819954 1.1071295 0.039513517
0000e0 7a 36 2f c0 e4 aa 3b 3f 62 8b c9 bc e5 9d 17 bf
       -2.7377 0.73307633 -0.024602596 -0.592253
0000f0 f6 b4 2d 3c 52 3e 1b be a9 a5 57 bd 65 7a b3 bc
       0.0106022265 -0.15160492 -0.05264822 -0.021908948
000100 1b e0 03 3f f6 6e 8b 3d 2c 21 41 bf d8 ab 23 3d
       0.5151383 0.068082735 -0.7544124 0.039958805
000110 50 6a 0c bf c5 37 0c 3f 64 cf 74 c0 cf 26 88 3f
       -0.5484972 0.547726 -3.825158 1.0636843
000120 97 8c 82 3f cb 01 a6 3c ce f5 3b bd e4 f1 7d bc
       1.0199155 0.020264527 -0.045888714 -0.015499566
000130 67 c6 93 3f 28 9c 8e bb 24 a8 5f 3f 51 7d a1 bf
       1.1544923 -0.0043521114 0.8736594 -1.2616369
000140 54 27 8f bc 38 d6 13 3b 72 c9 60 bc 42 f1 49 3f
       -0.017474808 0.0022558104 -0.013719903 0.78883755
000150 31 96 03 bd 75 2d fd 3c c9 7e da bc 9c a3 cd bc
       -0.032125656 0.030905465 -0.026671784 -0.02510243
000160 f4 d6 90 3f fe 22 22 bd a8 de e7 be 78 96 09 bf
       1.1315598 -0.039584152 -0.4528706 -0.5374522
000170 cb be 9b 3f 7d f5 90 3f af 82 65 3c da c6 ab 3f
       1.21676 1.1324917 0.014008208 1.342006
000180 c7 e2 5e 3f 50 b9 72 bd ea 5b 0e bf 87 42 98 3f
       0.87064785 -0.05925876 -0.55609 1.1895303
000190 c7 9e 3f bd f8 25 22 3f dc 6a 8d 3f e3 d9 1f 3b
       -0.04678228 0.63339186 1.1048236 0.0024391345
0001a0 38 78 a7 3f 08 93 be 3e 09 38 a0 3f 3a 20 48 bc
       1.3083563 0.3722155 1.25171 -0.012214715
0001b0 68 a2 12 3d d0 12 f4 bf 6f 7a c6 3e 84 3e fd 3b
       0.035799414 -1.9068241 0.38765284 0.0077283997
0001c0 d7 e7 21 3c 3a 53 9f 3f e9 e3 2e bc 69 fc 2c bd
       0.009881935 1.2447274 -0.010674455 -0.042232905
0001d0 37 e9 00 bf c1 4c 76 3f d1 57 e7 bc 7a f5 19 3c
       -0.5035586 0.9621087 -0.028240116 0.009396905
0001e0 32 ba cc bf 8c e1 d1 bd ec fe 35 3d d4 95 78 3f
       -1.5994322 -0.10248098 0.044432566 0.9710362
0001f0 33 e0 12 3f 46 b4 28 bd a9 28 b5 bd e6 54 4b 3d
       0.5737335 -0.041187547 -0.08845646 0.049641512
000200 93 3c f8 ba c1 52 99 bf 48 df d6 3c 2a 30 6e bc
       -0.0018938951 -1.197838 0.026229516 -0.01453785
000210 7a ff 27 bf 80 17 14 bb 89 97 5f be 9a 30 b1 3f
       -0.656242 -0.0022597015 -0.2183515 1.3842957
000220 5e b1 37 3f a2 50 e4 3f e5 a9 dd bb 8d 7f 84 c0
       0.71755016 1.7837107 -0.006764638 -4.14057
000230 aa bd 47 bc 26 0b 14 3f a8 3e 02 3f f4 40 2d 3f
       -0.0121912155 0.5782951 0.50876856 0.67677236
000240 91 aa 47 3f 94 0f 12 bc 1c de d8 3e 86 dc fb 3b
       0.7799464 -0.008914847 0.42356956 0.0076862006
000250 f5 34 90 be ef db e1 bc fe 56 89 c0 88 8c a6 3f
       -0.28165403 -0.027570693 -4.291869 1.3011637
000260 47 d0 1c bd a9 35 ac bc ef 38 d7 3e 80 24 13 3d
       -0.038284566 -0.02102168 0.42035624 0.03592348
000270 a4 ec 72 bc bd f5 b0 bc ee 6e 73 bf 4d 62 b1 3f
       -0.014826927 -0.021601552 -0.9509114 1.3858124
000280 85 23 84 3f cf 6c e8 bf 0c 4e 1a bd a4 b6 3a bd
       1.032334 -1.8158206 -0.037672088 -0.045584336
000290 13 de 15 bd c0 e1 05 bc 2a 87 1a 3d 4e 70 1d 3c
       -0.03658874 -0.008171499 0.03772656 0.009609295
0002a0 bc 1b 6d bd 3f d7 24 3f ef bb 4f 3c 2f 59 14 3f
       -0.057887778 0.6439094 0.012679084 0.57948583
0002b0 6b fd 07 3f 75 7b 99 bf 52 39 f8 3e f6 a0 73 3f
       0.5312106 -1.1990801 0.48481232 0.9516748
0002c0 73 f1 e3 3e f9 9e 82 3d 23 4a b4 bb db f6 26 bd
       0.4452015 0.06377978 -0.005502002 -0.040762763
0002d0 bf 48 8e 3f 30 f4 e0 be 57 5a 09 3d 78 ab d4 3f
       1.111595 -0.439363 0.03353342 1.6614828
0002e0 9b 08 09 3f 33 66 d9 3f 15 fd 7a 3f a9 fa 21 bd
       0.53528756 1.6984314 0.9804242 -0.03954569
0002f0 6a e6 8d 3e e6 73 a3 bc eb 55 62 3f 9c be b9 bc
       0.27714854 -0.019952726 0.8841235 -0.022673897
000300 13 5c 90 bb b6 c3 c1 bc 3a 52 12 bd e0 ae 5b bd
       -0.0044055074 -0.023652893 -0.03572295 -0.05363357
000310 3e b7 2d 3c e9 59 cc 3e 22 9d 33 3f 01 9f 4a 3f
       0.01060277 0.39912346 0.7016164 0.7914887
000320 67 ba 45 3c af 0d 12 3f 52 44 b6 3f e9 11 03 3f
       0.012068368 0.5705213 1.42396 0.51199204
000330 af f4 74 be 46 31 2c bd c5 3b 24 bd 99 f1 b7 bf
       -0.23921464 -0.04203918 -0.040096063 -1.4370605
000340 c0 d0 be 3c ba a8 06 bd e6 c3 26 be 88 f6 fe 3e
       0.0232929 -0.032875754 -0.16285667 0.49797463
000350 c5 d5 9b 3f d0 93 b4 bc 04 76 61 3f ce 87 01 c0
       1.2174612 -0.022043139 0.880707 -2.0239139
000360 49 ca 5a 3f ef 7e a4 bc 6e b2 ea bb 7c 0e 18 3c
       0.8546491 -0.020080058 -0.0071623838 0.009280797
000370 43 91 a9 bf 14 5a 84 3f ee 64 1e bd 0a 2a 57 bc
       -1.3247455 1.033999 -0.038670473 -0.0131325815
000380 09 98 51 3f fe f2 e5 bd ba 1d e5 3e 76 02 9a 3e
       0.8187261 -0.11227988 0.44749242 0.30080003
000390 9c 20 93 3f 56 51 c8 3b aa 8c 31 bd 99 5b 1e bd
       1.1494327 0.0061132116 -0.04334704 -0.038661573
0003a0 e8 41 eb 3e a1 b4 51 bd 57 09 85 3f ca a1 8c 3f
       0.4594872 -0.05119765 1.0393475 1.0986874
0003b0 cc 6c 30 bf 69 54 24 3f f6 6a f6 bc e5 08 01 bc
       -0.6891601 0.641913 -0.0300803 -0.007875656
0003c0 36 00 95 3f 98 65 aa 3f 0c f0 a6 3f 58 92 68 bb
       1.1640689 1.3312254 1.3042006 -0.0035487618
0003d0 0f fb b5 3e 97 0e 5a 3f 80 97 ef bf 0f 64 57 3b
       0.35543105 0.8517851 -1.8718109 0.0032866036
0003e0 98 d6 6c bf d5 d8 0c bd 33 6a ec be 2f b3 9d 3f
       -0.92514944 -0.034386475 -0.46174774 1.2320307
0003f0 7f 5d 0b c0 ee fd 94 bf c2 37 21 bc e9 87 7b 3c
       -2.1775815 -1.1639993 -0.009839954 0.015352228

net.4.bias f4 [2]
000000 07 72 81 3d 02 5d 80 3c
       0.06320577 0.01566935
